{"format": "graph-model", "generatedBy": "2.8.0", "convertedBy": "TensorFlow.js Converter v3.15.0", "signature": {"inputs": {"first_input": {"name": "first_input:0", "dtype": "DT_FLOAT", "tensorShape": {"dim": [{"size": "1"}, {"size": "512"}, {"size": "512"}, {"size": "3"}]}}}, "outputs": {"tf.identity": {"name": "Identity:0", "dtype": "DT_INT32", "tensorShape": {"dim": [{"size": "1"}, {"size": "64"}, {"size": "64"}, {"size": "1"}]}}}}, "modelTopology": {"node": [{"name": "StatefulPartitionedCall/model/conv2d_10/Conv2D/ReadVariableOp", "op": "Const", "attr": {"dtype": {"type": "DT_FLOAT"}, "value": {"tensor": {"dtype": "DT_FLOAT", "tensorShape": {"dim": [{"size": "1"}, {"size": "1"}, {"size": "64"}, {"size": "256"}]}}}}}, {"name": "StatefulPartitionedCall/model/tf.math.add_18/Add/y", "op": "Const", "attr": {"value": {"tensor": {"dtype": "DT_FLOAT", "tensorShape": {"dim": [{"size": "256"}]}}}, "dtype": {"type": "DT_FLOAT"}}}, {"name": "StatefulPartitionedCall/model/conv2d_45/Conv2D/ReadVariableOp", "op": "Const", "attr": {"dtype": {"type": "DT_FLOAT"}, "value": {"tensor": {"dtype": "DT_FLOAT", "tensorShape": {"dim": [{"size": "1"}, {"size": "1"}, {"size": "64"}, {"size": "256"}]}}}}}, {"name": "StatefulPartitionedCall/model/tf.math.add_73/Add/y", "op": "Const", "attr": {"value": {"tensor": {"dtype": "DT_FLOAT", "tensorShape": {"dim": [{"size": "256"}]}}}, "dtype": {"type": "DT_FLOAT"}}}, {"name": "StatefulPartitionedCall/model/tf.math.multiply/Mul/y", "op": "Const", "attr": {"value": {"tensor": {"dtype": "DT_FLOAT", "tensorShape": {"dim": [{"size": "1"}, {"size": "1"}, {"size": "1"}, {"size": "1"}]}}}, "dtype": {"type": "DT_FLOAT"}}}, {"name": "StatefulPartitionedCall/model/lambda/ResizeBilinear/size", "op": "Const", "attr": {"dtype": {"type": "DT_INT32"}, "value": {"tensor": {"dtype": "DT_INT32", "tensorShape": {"dim": [{"size": "2"}]}}}}}, {"name": "StatefulPartitionedCall/model/tf.slice_1/Slice/begin", "op": "Const", "attr": {"value": {"tensor": {"dtype": "DT_INT32", "tensorShape": {"dim": [{"size": "4"}]}}}, "dtype": {"type": "DT_INT32"}}}, {"name": "StatefulPartitionedCall/model/tf.slice_1/Slice/size", "op": "Const", "attr": {"dtype": {"type": "DT_INT32"}, "value": {"tensor": {"dtype": "DT_INT32", "tensorShape": {"dim": [{"size": "4"}]}}}}}, {"name": "StatefulPartitionedCall/model/conv2d_46/Conv2D/ReadVariableOp", "op": "Const", "attr": {"dtype": {"type": "DT_FLOAT"}, "value": {"tensor": {"dtype": "DT_FLOAT", "tensorShape": {"dim": [{"size": "1"}, {"size": "1"}, {"size": "64"}, {"size": "256"}]}}}}}, {"name": "StatefulPartitionedCall/model/tf.math.add_74/Add/y", "op": "Const", "attr": {"dtype": {"type": "DT_FLOAT"}, "value": {"tensor": {"dtype": "DT_FLOAT", "tensorShape": {"dim": [{"size": "256"}]}}}}}, {"name": "StatefulPartitionedCall/model/lambda_1/ResizeBilinear/size", "op": "Const", "attr": {"dtype": {"type": "DT_INT32"}, "value": {"tensor": {"dtype": "DT_INT32", "tensorShape": {"dim": [{"size": "2"}]}}}}}, {"name": "StatefulPartitionedCall/model/conv2d_47/Conv2D/ReadVariableOp", "op": "Const", "attr": {"value": {"tensor": {"dtype": "DT_FLOAT", "tensorShape": {"dim": [{"size": "1"}, {"size": "1"}, {"size": "128"}, {"size": "256"}]}}}, "dtype": {"type": "DT_FLOAT"}}}, {"name": "StatefulPartitionedCall/model/tf.math.add_76/Add/y", "op": "Const", "attr": {"value": {"tensor": {"dtype": "DT_FLOAT", "tensorShape": {"dim": [{"size": "256"}]}}}, "dtype": {"type": "DT_FLOAT"}}}, {"name": "StatefulPartitionedCall/model/conv2d_48/Conv2D/ReadVariableOp", "op": "Const", "attr": {"dtype": {"type": "DT_FLOAT"}, "value": {"tensor": {"dtype": "DT_FLOAT", "tensorShape": {"dim": [{"size": "1"}, {"size": "1"}, {"size": "128"}, {"size": "256"}]}}}}}, {"name": "StatefulPartitionedCall/model/tf.math.add_77/Add/y", "op": "Const", "attr": {"value": {"tensor": {"dtype": "DT_FLOAT", "tensorShape": {"dim": [{"size": "256"}]}}}, "dtype": {"type": "DT_FLOAT"}}}, {"name": "StatefulPartitionedCall/model/tf.math.multiply_2/Mul/y", "op": "Const", "attr": {"value": {"tensor": {"dtype": "DT_FLOAT", "tensorShape": {"dim": [{"size": "1"}, {"size": "1"}, {"size": "1"}, {"size": "1"}]}}}, "dtype": {"type": "DT_FLOAT"}}}, {"name": "StatefulPartitionedCall/model/lambda_2/ResizeBilinear/size", "op": "Const", "attr": {"dtype": {"type": "DT_INT32"}, "value": {"tensor": {"dtype": "DT_INT32", "tensorShape": {"dim": [{"size": "2"}]}}}}}, {"name": "StatefulPartitionedCall/model/tf.slice_2/Slice/begin", "op": "Const", "attr": {"value": {"tensor": {"dtype": "DT_INT32", "tensorShape": {"dim": [{"size": "4"}]}}}, "dtype": {"type": "DT_INT32"}}}, {"name": "StatefulPartitionedCall/model/tf.slice_2/Slice/size", "op": "Const", "attr": {"dtype": {"type": "DT_INT32"}, "value": {"tensor": {"dtype": "DT_INT32", "tensorShape": {"dim": [{"size": "4"}]}}}}}, {"name": "StatefulPartitionedCall/model/conv2d_49/Conv2D/ReadVariableOp", "op": "Const", "attr": {"dtype": {"type": "DT_FLOAT"}, "value": {"tensor": {"dtype": "DT_FLOAT", "tensorShape": {"dim": [{"size": "1"}, {"size": "1"}, {"size": "128"}, {"size": "256"}]}}}}}, {"name": "StatefulPartitionedCall/model/tf.math.add_78/Add/y", "op": "Const", "attr": {"value": {"tensor": {"dtype": "DT_FLOAT", "tensorShape": {"dim": [{"size": "256"}]}}}, "dtype": {"type": "DT_FLOAT"}}}, {"name": "StatefulPartitionedCall/model/lambda_3/ResizeBilinear/size", "op": "Const", "attr": {"value": {"tensor": {"dtype": "DT_INT32", "tensorShape": {"dim": [{"size": "2"}]}}}, "dtype": {"type": "DT_INT32"}}}, {"name": "StatefulPartitionedCall/model/lambda_4/ResizeBilinear/size", "op": "Const", "attr": {"value": {"tensor": {"dtype": "DT_INT32", "tensorShape": {"dim": [{"size": "2"}]}}}, "dtype": {"type": "DT_INT32"}}}, {"name": "StatefulPartitionedCall/model/conv2d_50/Conv2D/ReadVariableOp", "op": "Const", "attr": {"dtype": {"type": "DT_FLOAT"}, "value": {"tensor": {"dtype": "DT_FLOAT", "tensorShape": {"dim": [{"size": "1"}, {"size": "1"}, {"size": "160"}, {"size": "256"}]}}}}}, {"name": "StatefulPartitionedCall/model/tf.math.add_81/Add/y", "op": "Const", "attr": {"dtype": {"type": "DT_FLOAT"}, "value": {"tensor": {"dtype": "DT_FLOAT", "tensorShape": {"dim": [{"size": "256"}]}}}}}, {"name": "StatefulPartitionedCall/model/conv2d_51/Conv2D/ReadVariableOp", "op": "Const", "attr": {"value": {"tensor": {"dtype": "DT_FLOAT", "tensorShape": {"dim": [{"size": "1"}, {"size": "1"}, {"size": "160"}, {"size": "256"}]}}}, "dtype": {"type": "DT_FLOAT"}}}, {"name": "StatefulPartitionedCall/model/tf.math.add_82/Add/y", "op": "Const", "attr": {"dtype": {"type": "DT_FLOAT"}, "value": {"tensor": {"dtype": "DT_FLOAT", "tensorShape": {"dim": [{"size": "256"}]}}}}}, {"name": "StatefulPartitionedCall/model/tf.math.multiply_4/Mul/y", "op": "Const", "attr": {"value": {"tensor": {"dtype": "DT_FLOAT", "tensorShape": {"dim": [{"size": "1"}, {"size": "1"}, {"size": "1"}, {"size": "1"}]}}}, "dtype": {"type": "DT_FLOAT"}}}, {"name": "StatefulPartitionedCall/model/lambda_5/ResizeBilinear/size", "op": "Const", "attr": {"value": {"tensor": {"dtype": "DT_INT32", "tensorShape": {"dim": [{"size": "2"}]}}}, "dtype": {"type": "DT_INT32"}}}, {"name": "StatefulPartitionedCall/model/tf.math.add_71/Add/y", "op": "Const", "attr": {"value": {"tensor": {"dtype": "DT_FLOAT", "tensorShape": {"dim": [{"size": "384"}]}}}, "dtype": {"type": "DT_FLOAT"}}}, {"name": "StatefulPartitionedCall/model/tf.math.add_67/Add/y", "op": "Const", "attr": {"value": {"tensor": {"dtype": "DT_FLOAT", "tensorShape": {"dim": [{"size": "384"}]}}}, "dtype": {"type": "DT_FLOAT"}}}, {"name": "StatefulPartitionedCall/model/conv2d_39/Conv2D/ReadVariableOp", "op": "Const", "attr": {"dtype": {"type": "DT_FLOAT"}, "value": {"tensor": {"dtype": "DT_FLOAT", "tensorShape": {"dim": [{"size": "1"}, {"size": "1"}, {"size": "384"}, {"size": "128"}]}}}}}, {"name": "StatefulPartitionedCall/model/tf.math.add_64/Add/y", "op": "Const", "attr": {"value": {"tensor": {"dtype": "DT_FLOAT", "tensorShape": {"dim": [{"size": "128"}]}}}, "dtype": {"type": "DT_FLOAT"}}}, {"name": "StatefulPartitionedCall/model/tf.reshape_18/Reshape/shape", "op": "Const", "attr": {"dtype": {"type": "DT_INT32"}, "value": {"tensor": {"dtype": "DT_INT32", "tensorShape": {"dim": [{"size": "4"}]}}}}}, {"name": "StatefulPartitionedCall/model/tf.compat.v1.transpose_12/transpose/perm", "op": "Const", "attr": {"dtype": {"type": "DT_INT32"}, "value": {"tensor": {"dtype": "DT_INT32", "tensorShape": {"dim": [{"size": "4"}]}}}}}, {"name": "StatefulPartitionedCall/model/conv2d_40/Conv2D/ReadVariableOp", "op": "Const", "attr": {"dtype": {"type": "DT_FLOAT"}, "value": {"tensor": {"dtype": "DT_FLOAT", "tensorShape": {"dim": [{"size": "1"}, {"size": "1"}, {"size": "384"}, {"size": "128"}]}}}}}, {"name": "StatefulPartitionedCall/model/tf.math.add_65/Add/y", "op": "Const", "attr": {"value": {"tensor": {"dtype": "DT_FLOAT", "tensorShape": {"dim": [{"size": "128"}]}}}, "dtype": {"type": "DT_FLOAT"}}}, {"name": "StatefulPartitionedCall/model/tf.reshape_19/Reshape/shape", "op": "Const", "attr": {"dtype": {"type": "DT_INT32"}, "value": {"tensor": {"dtype": "DT_INT32", "tensorShape": {"dim": [{"size": "4"}]}}}}}, {"name": "StatefulPartitionedCall/model/tf.compat.v1.transpose_13/transpose/perm", "op": "Const", "attr": {"value": {"tensor": {"dtype": "DT_INT32", "tensorShape": {"dim": [{"size": "4"}]}}}, "dtype": {"type": "DT_INT32"}}}, {"name": "unknown_59", "op": "Const", "attr": {"dtype": {"type": "DT_INT64"}, "value": {"tensor": {"dtype": "DT_INT64", "tensorShape": {"dim": [{"size": "2"}]}}}}}, {"name": "unknown_60", "op": "Const", "attr": {"dtype": {"type": "DT_INT64"}, "value": {"tensor": {"dtype": "DT_INT64", "tensorShape": {"dim": [{"size": "4"}]}}}}}, {"name": "StatefulPartitionedCall/model/tf.math.add_62/Add/y", "op": "Const", "attr": {"value": {"tensor": {"dtype": "DT_FLOAT", "tensorShape": {"dim": [{"size": "384"}]}}}, "dtype": {"type": "DT_FLOAT"}}}, {"name": "StatefulPartitionedCall/model/tf.math.add_58/Add/y", "op": "Const", "attr": {"value": {"tensor": {"dtype": "DT_FLOAT", "tensorShape": {"dim": [{"size": "384"}]}}}, "dtype": {"type": "DT_FLOAT"}}}, {"name": "StatefulPartitionedCall/model/conv2d_33/Conv2D/ReadVariableOp", "op": "Const", "attr": {"value": {"tensor": {"dtype": "DT_FLOAT", "tensorShape": {"dim": [{"size": "1"}, {"size": "1"}, {"size": "384"}, {"size": "128"}]}}}, "dtype": {"type": "DT_FLOAT"}}}, {"name": "StatefulPartitionedCall/model/tf.math.add_55/Add/y", "op": "Const", "attr": {"dtype": {"type": "DT_FLOAT"}, "value": {"tensor": {"dtype": "DT_FLOAT", "tensorShape": {"dim": [{"size": "128"}]}}}}}, {"name": "StatefulPartitionedCall/model/tf.reshape_12/Reshape/shape", "op": "Const", "attr": {"value": {"tensor": {"dtype": "DT_INT32", "tensorShape": {"dim": [{"size": "4"}]}}}, "dtype": {"type": "DT_INT32"}}}, {"name": "StatefulPartitionedCall/model/tf.compat.v1.transpose_8/transpose/perm", "op": "Const", "attr": {"dtype": {"type": "DT_INT32"}, "value": {"tensor": {"dtype": "DT_INT32", "tensorShape": {"dim": [{"size": "4"}]}}}}}, {"name": "StatefulPartitionedCall/model/conv2d_34/Conv2D/ReadVariableOp", "op": "Const", "attr": {"value": {"tensor": {"dtype": "DT_FLOAT", "tensorShape": {"dim": [{"size": "1"}, {"size": "1"}, {"size": "384"}, {"size": "128"}]}}}, "dtype": {"type": "DT_FLOAT"}}}, {"name": "StatefulPartitionedCall/model/tf.math.add_56/Add/y", "op": "Const", "attr": {"dtype": {"type": "DT_FLOAT"}, "value": {"tensor": {"dtype": "DT_FLOAT", "tensorShape": {"dim": [{"size": "128"}]}}}}}, {"name": "StatefulPartitionedCall/model/tf.reshape_13/Reshape/shape", "op": "Const", "attr": {"dtype": {"type": "DT_INT32"}, "value": {"tensor": {"dtype": "DT_INT32", "tensorShape": {"dim": [{"size": "4"}]}}}}}, {"name": "StatefulPartitionedCall/model/tf.compat.v1.transpose_9/transpose/perm", "op": "Const", "attr": {"value": {"tensor": {"dtype": "DT_INT32", "tensorShape": {"dim": [{"size": "4"}]}}}, "dtype": {"type": "DT_INT32"}}}, {"name": "unknown_50", "op": "Const", "attr": {"dtype": {"type": "DT_INT64"}, "value": {"tensor": {"dtype": "DT_INT64", "tensorShape": {"dim": [{"size": "2"}]}}}}}, {"name": "unknown_51", "op": "Const", "attr": {"dtype": {"type": "DT_INT64"}, "value": {"tensor": {"dtype": "DT_INT64", "tensorShape": {"dim": [{"size": "4"}]}}}}}, {"name": "StatefulPartitionedCall/model/tf.math.add_53/Add/y", "op": "Const", "attr": {"value": {"tensor": {"dtype": "DT_FLOAT", "tensorShape": {"dim": [{"size": "384"}]}}}, "dtype": {"type": "DT_FLOAT"}}}, {"name": "StatefulPartitionedCall/model/tf.math.add_49/Add/y", "op": "Const", "attr": {"value": {"tensor": {"dtype": "DT_FLOAT", "tensorShape": {"dim": [{"size": "384"}]}}}, "dtype": {"type": "DT_FLOAT"}}}, {"name": "StatefulPartitionedCall/model/conv2d_27/Conv2D/ReadVariableOp", "op": "Const", "attr": {"dtype": {"type": "DT_FLOAT"}, "value": {"tensor": {"dtype": "DT_FLOAT", "tensorShape": {"dim": [{"size": "1"}, {"size": "1"}, {"size": "384"}, {"size": "128"}]}}}}}, {"name": "StatefulPartitionedCall/model/tf.math.add_46/Add/y", "op": "Const", "attr": {"value": {"tensor": {"dtype": "DT_FLOAT", "tensorShape": {"dim": [{"size": "128"}]}}}, "dtype": {"type": "DT_FLOAT"}}}, {"name": "StatefulPartitionedCall/model/tf.reshape_6/Reshape/shape", "op": "Const", "attr": {"value": {"tensor": {"dtype": "DT_INT32", "tensorShape": {"dim": [{"size": "4"}]}}}, "dtype": {"type": "DT_INT32"}}}, {"name": "StatefulPartitionedCall/model/tf.compat.v1.transpose_4/transpose/perm", "op": "Const", "attr": {"value": {"tensor": {"dtype": "DT_INT32", "tensorShape": {"dim": [{"size": "4"}]}}}, "dtype": {"type": "DT_INT32"}}}, {"name": "StatefulPartitionedCall/model/conv2d_28/Conv2D/ReadVariableOp", "op": "Const", "attr": {"dtype": {"type": "DT_FLOAT"}, "value": {"tensor": {"dtype": "DT_FLOAT", "tensorShape": {"dim": [{"size": "1"}, {"size": "1"}, {"size": "384"}, {"size": "128"}]}}}}}, {"name": "StatefulPartitionedCall/model/tf.math.add_47/Add/y", "op": "Const", "attr": {"value": {"tensor": {"dtype": "DT_FLOAT", "tensorShape": {"dim": [{"size": "128"}]}}}, "dtype": {"type": "DT_FLOAT"}}}, {"name": "StatefulPartitionedCall/model/tf.reshape_7/Reshape/shape", "op": "Const", "attr": {"value": {"tensor": {"dtype": "DT_INT32", "tensorShape": {"dim": [{"size": "4"}]}}}, "dtype": {"type": "DT_INT32"}}}, {"name": "StatefulPartitionedCall/model/tf.compat.v1.transpose_5/transpose/perm", "op": "Const", "attr": {"value": {"tensor": {"dtype": "DT_INT32", "tensorShape": {"dim": [{"size": "4"}]}}}, "dtype": {"type": "DT_INT32"}}}, {"name": "unknown_41", "op": "Const", "attr": {"dtype": {"type": "DT_INT64"}, "value": {"tensor": {"dtype": "DT_INT64", "tensorShape": {"dim": [{"size": "2"}]}}}}}, {"name": "unknown_42", "op": "Const", "attr": {"value": {"tensor": {"dtype": "DT_INT64", "tensorShape": {"dim": [{"size": "4"}]}}}, "dtype": {"type": "DT_INT64"}}}, {"name": "StatefulPartitionedCall/model/tf.math.add_44/Add/y", "op": "Const", "attr": {"value": {"tensor": {"dtype": "DT_FLOAT", "tensorShape": {"dim": [{"size": "384"}]}}}, "dtype": {"type": "DT_FLOAT"}}}, {"name": "StatefulPartitionedCall/model/conv2d_21/Conv2D/ReadVariableOp", "op": "Const", "attr": {"dtype": {"type": "DT_FLOAT"}, "value": {"tensor": {"dtype": "DT_FLOAT", "tensorShape": {"dim": [{"size": "1"}, {"size": "1"}, {"size": "384"}, {"size": "128"}]}}}}}, {"name": "StatefulPartitionedCall/model/tf.math.add_37/Add/y", "op": "Const", "attr": {"dtype": {"type": "DT_FLOAT"}, "value": {"tensor": {"dtype": "DT_FLOAT", "tensorShape": {"dim": [{"size": "128"}]}}}}}, {"name": "StatefulPartitionedCall/model/tf.reshape/Reshape/shape", "op": "Const", "attr": {"dtype": {"type": "DT_INT32"}, "value": {"tensor": {"dtype": "DT_INT32", "tensorShape": {"dim": [{"size": "4"}]}}}}}, {"name": "StatefulPartitionedCall/model/tf.compat.v1.transpose/transpose/perm", "op": "Const", "attr": {"dtype": {"type": "DT_INT32"}, "value": {"tensor": {"dtype": "DT_INT32", "tensorShape": {"dim": [{"size": "4"}]}}}}}, {"name": "StatefulPartitionedCall/model/conv2d_22/Conv2D/ReadVariableOp", "op": "Const", "attr": {"value": {"tensor": {"dtype": "DT_FLOAT", "tensorShape": {"dim": [{"size": "1"}, {"size": "1"}, {"size": "384"}, {"size": "128"}]}}}, "dtype": {"type": "DT_FLOAT"}}}, {"name": "StatefulPartitionedCall/model/tf.math.add_38/Add/y", "op": "Const", "attr": {"dtype": {"type": "DT_FLOAT"}, "value": {"tensor": {"dtype": "DT_FLOAT", "tensorShape": {"dim": [{"size": "128"}]}}}}}, {"name": "StatefulPartitionedCall/model/tf.reshape_1/Reshape/shape", "op": "Const", "attr": {"value": {"tensor": {"dtype": "DT_INT32", "tensorShape": {"dim": [{"size": "4"}]}}}, "dtype": {"type": "DT_INT32"}}}, {"name": "StatefulPartitionedCall/model/tf.compat.v1.transpose_1/transpose/perm", "op": "Const", "attr": {"value": {"tensor": {"dtype": "DT_INT32", "tensorShape": {"dim": [{"size": "4"}]}}}, "dtype": {"type": "DT_INT32"}}}, {"name": "unknown_32", "op": "Const", "attr": {"value": {"tensor": {"dtype": "DT_INT64", "tensorShape": {"dim": [{"size": "2"}]}}}, "dtype": {"type": "DT_INT64"}}}, {"name": "unknown_33", "op": "Const", "attr": {"value": {"tensor": {"dtype": "DT_INT64", "tensorShape": {"dim": [{"size": "4"}]}}}, "dtype": {"type": "DT_INT64"}}}, {"name": "StatefulPartitionedCall/model/zero_padding2d/Pad/paddings", "op": "Const", "attr": {"dtype": {"type": "DT_INT32"}, "value": {"tensor": {"dtype": "DT_INT32", "tensorShape": {"dim": [{"size": "4"}, {"size": "2"}]}}}}}, {"name": "StatefulPartitionedCall/model/conv2d/Conv2D/ReadVariableOp", "op": "Const", "attr": {"value": {"tensor": {"dtype": "DT_FLOAT", "tensorShape": {"dim": [{"size": "3"}, {"size": "3"}, {"size": "3"}, {"size": "16"}]}}}, "dtype": {"type": "DT_FLOAT"}}}, {"name": "StatefulPartitionedCall/model/tf.math.add/Add/y", "op": "Const", "attr": {"value": {"tensor": {"dtype": "DT_FLOAT", "tensorShape": {"dim": [{"size": "16"}]}}}, "dtype": {"type": "DT_FLOAT"}}}, {"name": "StatefulPartitionedCall/model/zero_padding2d_1/Pad/paddings", "op": "Const", "attr": {"value": {"tensor": {"dtype": "DT_INT32", "tensorShape": {"dim": [{"size": "4"}, {"size": "2"}]}}}, "dtype": {"type": "DT_INT32"}}}, {"name": "StatefulPartitionedCall/model/depthwise_conv2d/depthwise/ReadVariableOp", "op": "Const", "attr": {"dtype": {"type": "DT_FLOAT"}, "value": {"tensor": {"dtype": "DT_FLOAT", "tensorShape": {"dim": [{"size": "3"}, {"size": "3"}, {"size": "16"}, {"size": "1"}]}}}}}, {"name": "StatefulPartitionedCall/model/tf.math.add_1/Add/y", "op": "Const", "attr": {"value": {"tensor": {"dtype": "DT_FLOAT", "tensorShape": {"dim": [{"size": "16"}]}}}, "dtype": {"type": "DT_FLOAT"}}}, {"name": "StatefulPartitionedCall/model/conv2d_1/Conv2D/ReadVariableOp", "op": "Const", "attr": {"dtype": {"type": "DT_FLOAT"}, "value": {"tensor": {"dtype": "DT_FLOAT", "tensorShape": {"dim": [{"size": "1"}, {"size": "1"}, {"size": "16"}, {"size": "16"}]}}}}}, {"name": "StatefulPartitionedCall/model/tf.math.add_2/Add/y", "op": "Const", "attr": {"value": {"tensor": {"dtype": "DT_FLOAT", "tensorShape": {"dim": [{"size": "16"}]}}}, "dtype": {"type": "DT_FLOAT"}}}, {"name": "StatefulPartitionedCall/model/conv2d_2/Conv2D/ReadVariableOp", "op": "Const", "attr": {"dtype": {"type": "DT_FLOAT"}, "value": {"tensor": {"dtype": "DT_FLOAT", "tensorShape": {"dim": [{"size": "1"}, {"size": "1"}, {"size": "16"}, {"size": "64"}]}}}}}, {"name": "StatefulPartitionedCall/model/tf.math.add_4/Add/y", "op": "Const", "attr": {"dtype": {"type": "DT_FLOAT"}, "value": {"tensor": {"dtype": "DT_FLOAT", "tensorShape": {"dim": [{"size": "64"}]}}}}}, {"name": "StatefulPartitionedCall/model/zero_padding2d_2/Pad/paddings", "op": "Const", "attr": {"dtype": {"type": "DT_INT32"}, "value": {"tensor": {"dtype": "DT_INT32", "tensorShape": {"dim": [{"size": "4"}, {"size": "2"}]}}}}}, {"name": "StatefulPartitionedCall/model/depthwise_conv2d_1/depthwise/ReadVariableOp", "op": "Const", "attr": {"value": {"tensor": {"dtype": "DT_FLOAT", "tensorShape": {"dim": [{"size": "3"}, {"size": "3"}, {"size": "64"}, {"size": "1"}]}}}, "dtype": {"type": "DT_FLOAT"}}}, {"name": "StatefulPartitionedCall/model/tf.math.add_5/Add/y", "op": "Const", "attr": {"dtype": {"type": "DT_FLOAT"}, "value": {"tensor": {"dtype": "DT_FLOAT", "tensorShape": {"dim": [{"size": "64"}]}}}}}, {"name": "StatefulPartitionedCall/model/conv2d_3/Conv2D/ReadVariableOp", "op": "Const", "attr": {"value": {"tensor": {"dtype": "DT_FLOAT", "tensorShape": {"dim": [{"size": "1"}, {"size": "1"}, {"size": "64"}, {"size": "32"}]}}}, "dtype": {"type": "DT_FLOAT"}}}, {"name": "StatefulPartitionedCall/model/tf.math.add_6/Add/y", "op": "Const", "attr": {"dtype": {"type": "DT_FLOAT"}, "value": {"tensor": {"dtype": "DT_FLOAT", "tensorShape": {"dim": [{"size": "32"}]}}}}}, {"name": "StatefulPartitionedCall/model/conv2d_4/Conv2D/ReadVariableOp", "op": "Const", "attr": {"value": {"tensor": {"dtype": "DT_FLOAT", "tensorShape": {"dim": [{"size": "1"}, {"size": "1"}, {"size": "32"}, {"size": "96"}]}}}, "dtype": {"type": "DT_FLOAT"}}}, {"name": "StatefulPartitionedCall/model/tf.math.add_7/Add/y", "op": "Const", "attr": {"dtype": {"type": "DT_FLOAT"}, "value": {"tensor": {"dtype": "DT_FLOAT", "tensorShape": {"dim": [{"size": "96"}]}}}}}, {"name": "StatefulPartitionedCall/model/zero_padding2d_3/Pad/paddings", "op": "Const", "attr": {"value": {"tensor": {"dtype": "DT_INT32", "tensorShape": {"dim": [{"size": "4"}, {"size": "2"}]}}}, "dtype": {"type": "DT_INT32"}}}, {"name": "StatefulPartitionedCall/model/depthwise_conv2d_2/depthwise/ReadVariableOp", "op": "Const", "attr": {"dtype": {"type": "DT_FLOAT"}, "value": {"tensor": {"dtype": "DT_FLOAT", "tensorShape": {"dim": [{"size": "3"}, {"size": "3"}, {"size": "96"}, {"size": "1"}]}}}}}, {"name": "StatefulPartitionedCall/model/tf.math.add_8/Add/y", "op": "Const", "attr": {"value": {"tensor": {"dtype": "DT_FLOAT", "tensorShape": {"dim": [{"size": "96"}]}}}, "dtype": {"type": "DT_FLOAT"}}}, {"name": "StatefulPartitionedCall/model/conv2d_5/Conv2D/ReadVariableOp", "op": "Const", "attr": {"value": {"tensor": {"dtype": "DT_FLOAT", "tensorShape": {"dim": [{"size": "1"}, {"size": "1"}, {"size": "96"}, {"size": "32"}]}}}, "dtype": {"type": "DT_FLOAT"}}}, {"name": "StatefulPartitionedCall/model/tf.math.add_9/Add/y", "op": "Const", "attr": {"dtype": {"type": "DT_FLOAT"}, "value": {"tensor": {"dtype": "DT_FLOAT", "tensorShape": {"dim": [{"size": "32"}]}}}}}, {"name": "StatefulPartitionedCall/model/conv2d_6/Conv2D/ReadVariableOp", "op": "Const", "attr": {"dtype": {"type": "DT_FLOAT"}, "value": {"tensor": {"dtype": "DT_FLOAT", "tensorShape": {"dim": [{"size": "1"}, {"size": "1"}, {"size": "32"}, {"size": "96"}]}}}}}, {"name": "StatefulPartitionedCall/model/tf.math.add_11/Add/y", "op": "Const", "attr": {"dtype": {"type": "DT_FLOAT"}, "value": {"tensor": {"dtype": "DT_FLOAT", "tensorShape": {"dim": [{"size": "96"}]}}}}}, {"name": "StatefulPartitionedCall/model/zero_padding2d_4/Pad/paddings", "op": "Const", "attr": {"value": {"tensor": {"dtype": "DT_INT32", "tensorShape": {"dim": [{"size": "4"}, {"size": "2"}]}}}, "dtype": {"type": "DT_INT32"}}}, {"name": "StatefulPartitionedCall/model/depthwise_conv2d_3/depthwise/ReadVariableOp", "op": "Const", "attr": {"dtype": {"type": "DT_FLOAT"}, "value": {"tensor": {"dtype": "DT_FLOAT", "tensorShape": {"dim": [{"size": "5"}, {"size": "5"}, {"size": "96"}, {"size": "1"}]}}}}}, {"name": "StatefulPartitionedCall/model/tf.math.add_12/Add/y", "op": "Const", "attr": {"value": {"tensor": {"dtype": "DT_FLOAT", "tensorShape": {"dim": [{"size": "96"}]}}}, "dtype": {"type": "DT_FLOAT"}}}, {"name": "StatefulPartitionedCall/model/conv2d_7/Conv2D/ReadVariableOp", "op": "Const", "attr": {"value": {"tensor": {"dtype": "DT_FLOAT", "tensorShape": {"dim": [{"size": "1"}, {"size": "1"}, {"size": "96"}, {"size": "64"}]}}}, "dtype": {"type": "DT_FLOAT"}}}, {"name": "StatefulPartitionedCall/model/tf.math.add_13/Add/y", "op": "Const", "attr": {"dtype": {"type": "DT_FLOAT"}, "value": {"tensor": {"dtype": "DT_FLOAT", "tensorShape": {"dim": [{"size": "64"}]}}}}}, {"name": "StatefulPartitionedCall/model/conv2d_8/Conv2D/ReadVariableOp", "op": "Const", "attr": {"dtype": {"type": "DT_FLOAT"}, "value": {"tensor": {"dtype": "DT_FLOAT", "tensorShape": {"dim": [{"size": "1"}, {"size": "1"}, {"size": "64"}, {"size": "192"}]}}}}}, {"name": "StatefulPartitionedCall/model/tf.math.add_14/Add/y", "op": "Const", "attr": {"dtype": {"type": "DT_FLOAT"}, "value": {"tensor": {"dtype": "DT_FLOAT", "tensorShape": {"dim": [{"size": "192"}]}}}}}, {"name": "StatefulPartitionedCall/model/zero_padding2d_5/Pad/paddings", "op": "Const", "attr": {"dtype": {"type": "DT_INT32"}, "value": {"tensor": {"dtype": "DT_INT32", "tensorShape": {"dim": [{"size": "4"}, {"size": "2"}]}}}}}, {"name": "StatefulPartitionedCall/model/depthwise_conv2d_4/depthwise/ReadVariableOp", "op": "Const", "attr": {"dtype": {"type": "DT_FLOAT"}, "value": {"tensor": {"dtype": "DT_FLOAT", "tensorShape": {"dim": [{"size": "5"}, {"size": "5"}, {"size": "192"}, {"size": "1"}]}}}}}, {"name": "StatefulPartitionedCall/model/tf.math.add_15/Add/y", "op": "Const", "attr": {"dtype": {"type": "DT_FLOAT"}, "value": {"tensor": {"dtype": "DT_FLOAT", "tensorShape": {"dim": [{"size": "192"}]}}}}}, {"name": "StatefulPartitionedCall/model/conv2d_9/Conv2D/ReadVariableOp", "op": "Const", "attr": {"value": {"tensor": {"dtype": "DT_FLOAT", "tensorShape": {"dim": [{"size": "1"}, {"size": "1"}, {"size": "192"}, {"size": "64"}]}}}, "dtype": {"type": "DT_FLOAT"}}}, {"name": "StatefulPartitionedCall/model/tf.math.add_16/Add/y", "op": "Const", "attr": {"dtype": {"type": "DT_FLOAT"}, "value": {"tensor": {"dtype": "DT_FLOAT", "tensorShape": {"dim": [{"size": "64"}]}}}}}, {"name": "StatefulPartitionedCall/model/conv2d_11/Conv2D/ReadVariableOp", "op": "Const", "attr": {"dtype": {"type": "DT_FLOAT"}, "value": {"tensor": {"dtype": "DT_FLOAT", "tensorShape": {"dim": [{"size": "1"}, {"size": "1"}, {"size": "64"}, {"size": "192"}]}}}}}, {"name": "StatefulPartitionedCall/model/tf.math.add_19/Add/y", "op": "Const", "attr": {"value": {"tensor": {"dtype": "DT_FLOAT", "tensorShape": {"dim": [{"size": "192"}]}}}, "dtype": {"type": "DT_FLOAT"}}}, {"name": "StatefulPartitionedCall/model/zero_padding2d_6/Pad/paddings", "op": "Const", "attr": {"value": {"tensor": {"dtype": "DT_INT32", "tensorShape": {"dim": [{"size": "4"}, {"size": "2"}]}}}, "dtype": {"type": "DT_INT32"}}}, {"name": "StatefulPartitionedCall/model/depthwise_conv2d_5/depthwise/ReadVariableOp", "op": "Const", "attr": {"value": {"tensor": {"dtype": "DT_FLOAT", "tensorShape": {"dim": [{"size": "3"}, {"size": "3"}, {"size": "192"}, {"size": "1"}]}}}, "dtype": {"type": "DT_FLOAT"}}}, {"name": "StatefulPartitionedCall/model/tf.math.add_20/Add/y", "op": "Const", "attr": {"value": {"tensor": {"dtype": "DT_FLOAT", "tensorShape": {"dim": [{"size": "192"}]}}}, "dtype": {"type": "DT_FLOAT"}}}, {"name": "StatefulPartitionedCall/model/conv2d_12/Conv2D/ReadVariableOp", "op": "Const", "attr": {"dtype": {"type": "DT_FLOAT"}, "value": {"tensor": {"dtype": "DT_FLOAT", "tensorShape": {"dim": [{"size": "1"}, {"size": "1"}, {"size": "192"}, {"size": "128"}]}}}}}, {"name": "StatefulPartitionedCall/model/tf.math.add_21/Add/y", "op": "Const", "attr": {"value": {"tensor": {"dtype": "DT_FLOAT", "tensorShape": {"dim": [{"size": "128"}]}}}, "dtype": {"type": "DT_FLOAT"}}}, {"name": "StatefulPartitionedCall/model/conv2d_13/Conv2D/ReadVariableOp", "op": "Const", "attr": {"value": {"tensor": {"dtype": "DT_FLOAT", "tensorShape": {"dim": [{"size": "1"}, {"size": "1"}, {"size": "128"}, {"size": "384"}]}}}, "dtype": {"type": "DT_FLOAT"}}}, {"name": "StatefulPartitionedCall/model/tf.math.add_22/Add/y", "op": "Const", "attr": {"value": {"tensor": {"dtype": "DT_FLOAT", "tensorShape": {"dim": [{"size": "384"}]}}}, "dtype": {"type": "DT_FLOAT"}}}, {"name": "StatefulPartitionedCall/model/zero_padding2d_7/Pad/paddings", "op": "Const", "attr": {"dtype": {"type": "DT_INT32"}, "value": {"tensor": {"dtype": "DT_INT32", "tensorShape": {"dim": [{"size": "4"}, {"size": "2"}]}}}}}, {"name": "StatefulPartitionedCall/model/depthwise_conv2d_6/depthwise/ReadVariableOp", "op": "Const", "attr": {"dtype": {"type": "DT_FLOAT"}, "value": {"tensor": {"dtype": "DT_FLOAT", "tensorShape": {"dim": [{"size": "3"}, {"size": "3"}, {"size": "384"}, {"size": "1"}]}}}}}, {"name": "StatefulPartitionedCall/model/tf.math.add_23/Add/y", "op": "Const", "attr": {"value": {"tensor": {"dtype": "DT_FLOAT", "tensorShape": {"dim": [{"size": "384"}]}}}, "dtype": {"type": "DT_FLOAT"}}}, {"name": "StatefulPartitionedCall/model/conv2d_14/Conv2D/ReadVariableOp", "op": "Const", "attr": {"value": {"tensor": {"dtype": "DT_FLOAT", "tensorShape": {"dim": [{"size": "1"}, {"size": "1"}, {"size": "384"}, {"size": "128"}]}}}, "dtype": {"type": "DT_FLOAT"}}}, {"name": "StatefulPartitionedCall/model/tf.math.add_24/Add/y", "op": "Const", "attr": {"dtype": {"type": "DT_FLOAT"}, "value": {"tensor": {"dtype": "DT_FLOAT", "tensorShape": {"dim": [{"size": "128"}]}}}}}, {"name": "StatefulPartitionedCall/model/conv2d_15/Conv2D/ReadVariableOp", "op": "Const", "attr": {"dtype": {"type": "DT_FLOAT"}, "value": {"tensor": {"dtype": "DT_FLOAT", "tensorShape": {"dim": [{"size": "1"}, {"size": "1"}, {"size": "128"}, {"size": "768"}]}}}}}, {"name": "StatefulPartitionedCall/model/tf.math.add_26/Add/y", "op": "Const", "attr": {"dtype": {"type": "DT_FLOAT"}, "value": {"tensor": {"dtype": "DT_FLOAT", "tensorShape": {"dim": [{"size": "768"}]}}}}}, {"name": "StatefulPartitionedCall/model/zero_padding2d_8/Pad/paddings", "op": "Const", "attr": {"dtype": {"type": "DT_INT32"}, "value": {"tensor": {"dtype": "DT_INT32", "tensorShape": {"dim": [{"size": "4"}, {"size": "2"}]}}}}}, {"name": "StatefulPartitionedCall/model/depthwise_conv2d_7/depthwise/ReadVariableOp", "op": "Const", "attr": {"value": {"tensor": {"dtype": "DT_FLOAT", "tensorShape": {"dim": [{"size": "5"}, {"size": "5"}, {"size": "768"}, {"size": "1"}]}}}, "dtype": {"type": "DT_FLOAT"}}}, {"name": "StatefulPartitionedCall/model/tf.math.add_27/Add/y", "op": "Const", "attr": {"dtype": {"type": "DT_FLOAT"}, "value": {"tensor": {"dtype": "DT_FLOAT", "tensorShape": {"dim": [{"size": "768"}]}}}}}, {"name": "StatefulPartitionedCall/model/conv2d_16/Conv2D/ReadVariableOp", "op": "Const", "attr": {"value": {"tensor": {"dtype": "DT_FLOAT", "tensorShape": {"dim": [{"size": "1"}, {"size": "1"}, {"size": "768"}, {"size": "160"}]}}}, "dtype": {"type": "DT_FLOAT"}}}, {"name": "StatefulPartitionedCall/model/tf.math.add_28/Add/y", "op": "Const", "attr": {"dtype": {"type": "DT_FLOAT"}, "value": {"tensor": {"dtype": "DT_FLOAT", "tensorShape": {"dim": [{"size": "160"}]}}}}}, {"name": "StatefulPartitionedCall/model/conv2d_17/Conv2D/ReadVariableOp", "op": "Const", "attr": {"dtype": {"type": "DT_FLOAT"}, "value": {"tensor": {"dtype": "DT_FLOAT", "tensorShape": {"dim": [{"size": "1"}, {"size": "1"}, {"size": "160"}, {"size": "960"}]}}}}}, {"name": "StatefulPartitionedCall/model/tf.math.add_29/Add/y", "op": "Const", "attr": {"value": {"tensor": {"dtype": "DT_FLOAT", "tensorShape": {"dim": [{"size": "960"}]}}}, "dtype": {"type": "DT_FLOAT"}}}, {"name": "StatefulPartitionedCall/model/zero_padding2d_9/Pad/paddings", "op": "Const", "attr": {"value": {"tensor": {"dtype": "DT_INT32", "tensorShape": {"dim": [{"size": "4"}, {"size": "2"}]}}}, "dtype": {"type": "DT_INT32"}}}, {"name": "StatefulPartitionedCall/model/depthwise_conv2d_8/depthwise/ReadVariableOp", "op": "Const", "attr": {"dtype": {"type": "DT_FLOAT"}, "value": {"tensor": {"dtype": "DT_FLOAT", "tensorShape": {"dim": [{"size": "5"}, {"size": "5"}, {"size": "960"}, {"size": "1"}]}}}}}, {"name": "StatefulPartitionedCall/model/tf.math.add_30/Add/y", "op": "Const", "attr": {"value": {"tensor": {"dtype": "DT_FLOAT", "tensorShape": {"dim": [{"size": "960"}]}}}, "dtype": {"type": "DT_FLOAT"}}}, {"name": "StatefulPartitionedCall/model/conv2d_18/Conv2D/ReadVariableOp", "op": "Const", "attr": {"dtype": {"type": "DT_FLOAT"}, "value": {"tensor": {"dtype": "DT_FLOAT", "tensorShape": {"dim": [{"size": "1"}, {"size": "1"}, {"size": "960"}, {"size": "160"}]}}}}}, {"name": "StatefulPartitionedCall/model/tf.math.add_31/Add/y", "op": "Const", "attr": {"dtype": {"type": "DT_FLOAT"}, "value": {"tensor": {"dtype": "DT_FLOAT", "tensorShape": {"dim": [{"size": "160"}]}}}}}, {"name": "StatefulPartitionedCall/model/conv2d_19/Conv2D/ReadVariableOp", "op": "Const", "attr": {"dtype": {"type": "DT_FLOAT"}, "value": {"tensor": {"dtype": "DT_FLOAT", "tensorShape": {"dim": [{"size": "1"}, {"size": "1"}, {"size": "160"}, {"size": "960"}]}}}}}, {"name": "StatefulPartitionedCall/model/tf.math.add_33/Add/y", "op": "Const", "attr": {"value": {"tensor": {"dtype": "DT_FLOAT", "tensorShape": {"dim": [{"size": "960"}]}}}, "dtype": {"type": "DT_FLOAT"}}}, {"name": "StatefulPartitionedCall/model/zero_padding2d_10/Pad/paddings", "op": "Const", "attr": {"dtype": {"type": "DT_INT32"}, "value": {"tensor": {"dtype": "DT_INT32", "tensorShape": {"dim": [{"size": "4"}, {"size": "2"}]}}}}}, {"name": "StatefulPartitionedCall/model/depthwise_conv2d_9/depthwise/ReadVariableOp", "op": "Const", "attr": {"value": {"tensor": {"dtype": "DT_FLOAT", "tensorShape": {"dim": [{"size": "3"}, {"size": "3"}, {"size": "960"}, {"size": "1"}]}}}, "dtype": {"type": "DT_FLOAT"}}}, {"name": "StatefulPartitionedCall/model/tf.math.add_34/Add/y", "op": "Const", "attr": {"value": {"tensor": {"dtype": "DT_FLOAT", "tensorShape": {"dim": [{"size": "960"}]}}}, "dtype": {"type": "DT_FLOAT"}}}, {"name": "StatefulPartitionedCall/model/conv2d_20/Conv2D/ReadVariableOp", "op": "Const", "attr": {"dtype": {"type": "DT_FLOAT"}, "value": {"tensor": {"dtype": "DT_FLOAT", "tensorShape": {"dim": [{"size": "1"}, {"size": "1"}, {"size": "960"}, {"size": "160"}]}}}}}, {"name": "StatefulPartitionedCall/model/tf.math.add_35/Add/y", "op": "Const", "attr": {"value": {"tensor": {"dtype": "DT_FLOAT", "tensorShape": {"dim": [{"size": "160"}]}}}, "dtype": {"type": "DT_FLOAT"}}}, {"name": "StatefulPartitionedCall/model/tf.concat/concat/axis", "op": "Const", "attr": {"value": {"tensor": {"dtype": "DT_INT32", "tensorShape": {}}}, "dtype": {"type": "DT_INT32"}}}, {"name": "StatefulPartitionedCall/model/conv2d_23/Conv2D/ReadVariableOp", "op": "Const", "attr": {"value": {"tensor": {"dtype": "DT_FLOAT", "tensorShape": {"dim": [{"size": "1"}, {"size": "1"}, {"size": "384"}, {"size": "256"}]}}}, "dtype": {"type": "DT_FLOAT"}}}, {"name": "StatefulPartitionedCall/model/tf.math.add_39/Add/y", "op": "Const", "attr": {"dtype": {"type": "DT_FLOAT"}, "value": {"tensor": {"dtype": "DT_FLOAT", "tensorShape": {"dim": [{"size": "256"}]}}}}}, {"name": "StatefulPartitionedCall/model/tf.reshape_4/Reshape/shape", "op": "Const", "attr": {"dtype": {"type": "DT_INT32"}, "value": {"tensor": {"dtype": "DT_INT32", "tensorShape": {"dim": [{"size": "4"}]}}}}}, {"name": "StatefulPartitionedCall/model/tf.compat.v1.transpose_2/transpose/perm", "op": "Const", "attr": {"dtype": {"type": "DT_INT32"}, "value": {"tensor": {"dtype": "DT_INT32", "tensorShape": {"dim": [{"size": "4"}]}}}}}, {"name": "StatefulPartitionedCall/model/tf.compat.v1.transpose_3/transpose/perm", "op": "Const", "attr": {"value": {"tensor": {"dtype": "DT_INT32", "tensorShape": {"dim": [{"size": "4"}]}}}, "dtype": {"type": "DT_INT32"}}}, {"name": "StatefulPartitionedCall/model/tf.reshape_5/Reshape/shape", "op": "Const", "attr": {"value": {"tensor": {"dtype": "DT_INT32", "tensorShape": {"dim": [{"size": "4"}]}}}, "dtype": {"type": "DT_INT32"}}}, {"name": "StatefulPartitionedCall/model/conv2d_24/Conv2D/ReadVariableOp", "op": "Const", "attr": {"dtype": {"type": "DT_FLOAT"}, "value": {"tensor": {"dtype": "DT_FLOAT", "tensorShape": {"dim": [{"size": "1"}, {"size": "1"}, {"size": "256"}, {"size": "384"}]}}}}}, {"name": "StatefulPartitionedCall/model/tf.math.add_40/Add/y", "op": "Const", "attr": {"dtype": {"type": "DT_FLOAT"}, "value": {"tensor": {"dtype": "DT_FLOAT", "tensorShape": {"dim": [{"size": "384"}]}}}}}, {"name": "StatefulPartitionedCall/model/conv2d_25/Conv2D/ReadVariableOp", "op": "Const", "attr": {"value": {"tensor": {"dtype": "DT_FLOAT", "tensorShape": {"dim": [{"size": "1"}, {"size": "1"}, {"size": "384"}, {"size": "768"}]}}}, "dtype": {"type": "DT_FLOAT"}}}, {"name": "StatefulPartitionedCall/model/tf.math.add_42/Add/y", "op": "Const", "attr": {"value": {"tensor": {"dtype": "DT_FLOAT", "tensorShape": {"dim": [{"size": "768"}]}}}, "dtype": {"type": "DT_FLOAT"}}}, {"name": "StatefulPartitionedCall/model/zero_padding2d_11/Pad/paddings", "op": "Const", "attr": {"dtype": {"type": "DT_INT32"}, "value": {"tensor": {"dtype": "DT_INT32", "tensorShape": {"dim": [{"size": "4"}, {"size": "2"}]}}}}}, {"name": "StatefulPartitionedCall/model/depthwise_conv2d_10/depthwise/ReadVariableOp", "op": "Const", "attr": {"dtype": {"type": "DT_FLOAT"}, "value": {"tensor": {"dtype": "DT_FLOAT", "tensorShape": {"dim": [{"size": "3"}, {"size": "3"}, {"size": "768"}, {"size": "1"}]}}}}}, {"name": "StatefulPartitionedCall/model/tf.math.add_43/Add/y", "op": "Const", "attr": {"dtype": {"type": "DT_FLOAT"}, "value": {"tensor": {"dtype": "DT_FLOAT", "tensorShape": {"dim": [{"size": "768"}]}}}}}, {"name": "StatefulPartitionedCall/model/conv2d_26/Conv2D/ReadVariableOp", "op": "Const", "attr": {"value": {"tensor": {"dtype": "DT_FLOAT", "tensorShape": {"dim": [{"size": "1"}, {"size": "1"}, {"size": "768"}, {"size": "384"}]}}}, "dtype": {"type": "DT_FLOAT"}}}, {"name": "StatefulPartitionedCall/model/conv2d_29/Conv2D/ReadVariableOp", "op": "Const", "attr": {"dtype": {"type": "DT_FLOAT"}, "value": {"tensor": {"dtype": "DT_FLOAT", "tensorShape": {"dim": [{"size": "1"}, {"size": "1"}, {"size": "384"}, {"size": "256"}]}}}}}, {"name": "StatefulPartitionedCall/model/tf.math.add_48/Add/y", "op": "Const", "attr": {"value": {"tensor": {"dtype": "DT_FLOAT", "tensorShape": {"dim": [{"size": "256"}]}}}, "dtype": {"type": "DT_FLOAT"}}}, {"name": "StatefulPartitionedCall/model/tf.reshape_10/Reshape/shape", "op": "Const", "attr": {"value": {"tensor": {"dtype": "DT_INT32", "tensorShape": {"dim": [{"size": "4"}]}}}, "dtype": {"type": "DT_INT32"}}}, {"name": "StatefulPartitionedCall/model/tf.compat.v1.transpose_6/transpose/perm", "op": "Const", "attr": {"value": {"tensor": {"dtype": "DT_INT32", "tensorShape": {"dim": [{"size": "4"}]}}}, "dtype": {"type": "DT_INT32"}}}, {"name": "StatefulPartitionedCall/model/tf.compat.v1.transpose_7/transpose/perm", "op": "Const", "attr": {"dtype": {"type": "DT_INT32"}, "value": {"tensor": {"dtype": "DT_INT32", "tensorShape": {"dim": [{"size": "4"}]}}}}}, {"name": "StatefulPartitionedCall/model/tf.reshape_11/Reshape/shape", "op": "Const", "attr": {"value": {"tensor": {"dtype": "DT_INT32", "tensorShape": {"dim": [{"size": "4"}]}}}, "dtype": {"type": "DT_INT32"}}}, {"name": "StatefulPartitionedCall/model/conv2d_30/Conv2D/ReadVariableOp", "op": "Const", "attr": {"dtype": {"type": "DT_FLOAT"}, "value": {"tensor": {"dtype": "DT_FLOAT", "tensorShape": {"dim": [{"size": "1"}, {"size": "1"}, {"size": "256"}, {"size": "384"}]}}}}}, {"name": "StatefulPartitionedCall/model/conv2d_31/Conv2D/ReadVariableOp", "op": "Const", "attr": {"dtype": {"type": "DT_FLOAT"}, "value": {"tensor": {"dtype": "DT_FLOAT", "tensorShape": {"dim": [{"size": "1"}, {"size": "1"}, {"size": "384"}, {"size": "768"}]}}}}}, {"name": "StatefulPartitionedCall/model/tf.math.add_51/Add/y", "op": "Const", "attr": {"dtype": {"type": "DT_FLOAT"}, "value": {"tensor": {"dtype": "DT_FLOAT", "tensorShape": {"dim": [{"size": "768"}]}}}}}, {"name": "StatefulPartitionedCall/model/zero_padding2d_12/Pad/paddings", "op": "Const", "attr": {"dtype": {"type": "DT_INT32"}, "value": {"tensor": {"dtype": "DT_INT32", "tensorShape": {"dim": [{"size": "4"}, {"size": "2"}]}}}}}, {"name": "StatefulPartitionedCall/model/depthwise_conv2d_11/depthwise/ReadVariableOp", "op": "Const", "attr": {"value": {"tensor": {"dtype": "DT_FLOAT", "tensorShape": {"dim": [{"size": "3"}, {"size": "3"}, {"size": "768"}, {"size": "1"}]}}}, "dtype": {"type": "DT_FLOAT"}}}, {"name": "StatefulPartitionedCall/model/tf.math.add_52/Add/y", "op": "Const", "attr": {"dtype": {"type": "DT_FLOAT"}, "value": {"tensor": {"dtype": "DT_FLOAT", "tensorShape": {"dim": [{"size": "768"}]}}}}}, {"name": "StatefulPartitionedCall/model/conv2d_32/Conv2D/ReadVariableOp", "op": "Const", "attr": {"value": {"tensor": {"dtype": "DT_FLOAT", "tensorShape": {"dim": [{"size": "1"}, {"size": "1"}, {"size": "768"}, {"size": "384"}]}}}, "dtype": {"type": "DT_FLOAT"}}}, {"name": "StatefulPartitionedCall/model/conv2d_35/Conv2D/ReadVariableOp", "op": "Const", "attr": {"dtype": {"type": "DT_FLOAT"}, "value": {"tensor": {"dtype": "DT_FLOAT", "tensorShape": {"dim": [{"size": "1"}, {"size": "1"}, {"size": "384"}, {"size": "256"}]}}}}}, {"name": "StatefulPartitionedCall/model/tf.math.add_57/Add/y", "op": "Const", "attr": {"value": {"tensor": {"dtype": "DT_FLOAT", "tensorShape": {"dim": [{"size": "256"}]}}}, "dtype": {"type": "DT_FLOAT"}}}, {"name": "StatefulPartitionedCall/model/tf.reshape_16/Reshape/shape", "op": "Const", "attr": {"dtype": {"type": "DT_INT32"}, "value": {"tensor": {"dtype": "DT_INT32", "tensorShape": {"dim": [{"size": "4"}]}}}}}, {"name": "StatefulPartitionedCall/model/tf.compat.v1.transpose_10/transpose/perm", "op": "Const", "attr": {"dtype": {"type": "DT_INT32"}, "value": {"tensor": {"dtype": "DT_INT32", "tensorShape": {"dim": [{"size": "4"}]}}}}}, {"name": "StatefulPartitionedCall/model/tf.compat.v1.transpose_11/transpose/perm", "op": "Const", "attr": {"dtype": {"type": "DT_INT32"}, "value": {"tensor": {"dtype": "DT_INT32", "tensorShape": {"dim": [{"size": "4"}]}}}}}, {"name": "StatefulPartitionedCall/model/tf.reshape_17/Reshape/shape", "op": "Const", "attr": {"value": {"tensor": {"dtype": "DT_INT32", "tensorShape": {"dim": [{"size": "4"}]}}}, "dtype": {"type": "DT_INT32"}}}, {"name": "StatefulPartitionedCall/model/conv2d_36/Conv2D/ReadVariableOp", "op": "Const", "attr": {"value": {"tensor": {"dtype": "DT_FLOAT", "tensorShape": {"dim": [{"size": "1"}, {"size": "1"}, {"size": "256"}, {"size": "384"}]}}}, "dtype": {"type": "DT_FLOAT"}}}, {"name": "StatefulPartitionedCall/model/conv2d_37/Conv2D/ReadVariableOp", "op": "Const", "attr": {"value": {"tensor": {"dtype": "DT_FLOAT", "tensorShape": {"dim": [{"size": "1"}, {"size": "1"}, {"size": "384"}, {"size": "768"}]}}}, "dtype": {"type": "DT_FLOAT"}}}, {"name": "StatefulPartitionedCall/model/tf.math.add_60/Add/y", "op": "Const", "attr": {"value": {"tensor": {"dtype": "DT_FLOAT", "tensorShape": {"dim": [{"size": "768"}]}}}, "dtype": {"type": "DT_FLOAT"}}}, {"name": "StatefulPartitionedCall/model/zero_padding2d_13/Pad/paddings", "op": "Const", "attr": {"value": {"tensor": {"dtype": "DT_INT32", "tensorShape": {"dim": [{"size": "4"}, {"size": "2"}]}}}, "dtype": {"type": "DT_INT32"}}}, {"name": "StatefulPartitionedCall/model/depthwise_conv2d_12/depthwise/ReadVariableOp", "op": "Const", "attr": {"dtype": {"type": "DT_FLOAT"}, "value": {"tensor": {"dtype": "DT_FLOAT", "tensorShape": {"dim": [{"size": "3"}, {"size": "3"}, {"size": "768"}, {"size": "1"}]}}}}}, {"name": "StatefulPartitionedCall/model/tf.math.add_61/Add/y", "op": "Const", "attr": {"dtype": {"type": "DT_FLOAT"}, "value": {"tensor": {"dtype": "DT_FLOAT", "tensorShape": {"dim": [{"size": "768"}]}}}}}, {"name": "StatefulPartitionedCall/model/conv2d_38/Conv2D/ReadVariableOp", "op": "Const", "attr": {"dtype": {"type": "DT_FLOAT"}, "value": {"tensor": {"dtype": "DT_FLOAT", "tensorShape": {"dim": [{"size": "1"}, {"size": "1"}, {"size": "768"}, {"size": "384"}]}}}}}, {"name": "StatefulPartitionedCall/model/conv2d_41/Conv2D/ReadVariableOp", "op": "Const", "attr": {"value": {"tensor": {"dtype": "DT_FLOAT", "tensorShape": {"dim": [{"size": "1"}, {"size": "1"}, {"size": "384"}, {"size": "256"}]}}}, "dtype": {"type": "DT_FLOAT"}}}, {"name": "StatefulPartitionedCall/model/tf.math.add_66/Add/y", "op": "Const", "attr": {"dtype": {"type": "DT_FLOAT"}, "value": {"tensor": {"dtype": "DT_FLOAT", "tensorShape": {"dim": [{"size": "256"}]}}}}}, {"name": "StatefulPartitionedCall/model/tf.reshape_22/Reshape/shape", "op": "Const", "attr": {"dtype": {"type": "DT_INT32"}, "value": {"tensor": {"dtype": "DT_INT32", "tensorShape": {"dim": [{"size": "4"}]}}}}}, {"name": "StatefulPartitionedCall/model/tf.compat.v1.transpose_14/transpose/perm", "op": "Const", "attr": {"value": {"tensor": {"dtype": "DT_INT32", "tensorShape": {"dim": [{"size": "4"}]}}}, "dtype": {"type": "DT_INT32"}}}, {"name": "StatefulPartitionedCall/model/tf.compat.v1.transpose_15/transpose/perm", "op": "Const", "attr": {"dtype": {"type": "DT_INT32"}, "value": {"tensor": {"dtype": "DT_INT32", "tensorShape": {"dim": [{"size": "4"}]}}}}}, {"name": "StatefulPartitionedCall/model/tf.reshape_23/Reshape/shape", "op": "Const", "attr": {"value": {"tensor": {"dtype": "DT_INT32", "tensorShape": {"dim": [{"size": "4"}]}}}, "dtype": {"type": "DT_INT32"}}}, {"name": "StatefulPartitionedCall/model/conv2d_42/Conv2D/ReadVariableOp", "op": "Const", "attr": {"dtype": {"type": "DT_FLOAT"}, "value": {"tensor": {"dtype": "DT_FLOAT", "tensorShape": {"dim": [{"size": "1"}, {"size": "1"}, {"size": "256"}, {"size": "384"}]}}}}}, {"name": "StatefulPartitionedCall/model/conv2d_43/Conv2D/ReadVariableOp", "op": "Const", "attr": {"dtype": {"type": "DT_FLOAT"}, "value": {"tensor": {"dtype": "DT_FLOAT", "tensorShape": {"dim": [{"size": "1"}, {"size": "1"}, {"size": "384"}, {"size": "768"}]}}}}}, {"name": "StatefulPartitionedCall/model/tf.math.add_69/Add/y", "op": "Const", "attr": {"dtype": {"type": "DT_FLOAT"}, "value": {"tensor": {"dtype": "DT_FLOAT", "tensorShape": {"dim": [{"size": "768"}]}}}}}, {"name": "StatefulPartitionedCall/model/zero_padding2d_14/Pad/paddings", "op": "Const", "attr": {"dtype": {"type": "DT_INT32"}, "value": {"tensor": {"dtype": "DT_INT32", "tensorShape": {"dim": [{"size": "4"}, {"size": "2"}]}}}}}, {"name": "StatefulPartitionedCall/model/depthwise_conv2d_13/depthwise/ReadVariableOp", "op": "Const", "attr": {"value": {"tensor": {"dtype": "DT_FLOAT", "tensorShape": {"dim": [{"size": "3"}, {"size": "3"}, {"size": "768"}, {"size": "1"}]}}}, "dtype": {"type": "DT_FLOAT"}}}, {"name": "StatefulPartitionedCall/model/tf.math.add_70/Add/y", "op": "Const", "attr": {"value": {"tensor": {"dtype": "DT_FLOAT", "tensorShape": {"dim": [{"size": "768"}]}}}, "dtype": {"type": "DT_FLOAT"}}}, {"name": "StatefulPartitionedCall/model/conv2d_44/Conv2D/ReadVariableOp", "op": "Const", "attr": {"value": {"tensor": {"dtype": "DT_FLOAT", "tensorShape": {"dim": [{"size": "1"}, {"size": "1"}, {"size": "768"}, {"size": "384"}]}}}, "dtype": {"type": "DT_FLOAT"}}}, {"name": "StatefulPartitionedCall/model/tf.slice_3/Slice/begin", "op": "Const", "attr": {"value": {"tensor": {"dtype": "DT_INT32", "tensorShape": {"dim": [{"size": "4"}]}}}, "dtype": {"type": "DT_INT32"}}}, {"name": "StatefulPartitionedCall/model/tf.slice_3/Slice/size", "op": "Const", "attr": {"value": {"tensor": {"dtype": "DT_INT32", "tensorShape": {"dim": [{"size": "4"}]}}}, "dtype": {"type": "DT_INT32"}}}, {"name": "StatefulPartitionedCall/model/conv2d_52/Conv2D/ReadVariableOp", "op": "Const", "attr": {"dtype": {"type": "DT_FLOAT"}, "value": {"tensor": {"dtype": "DT_FLOAT", "tensorShape": {"dim": [{"size": "1"}, {"size": "1"}, {"size": "160"}, {"size": "256"}]}}}}}, {"name": "StatefulPartitionedCall/model/tf.math.add_83/Add/y", "op": "Const", "attr": {"dtype": {"type": "DT_FLOAT"}, "value": {"tensor": {"dtype": "DT_FLOAT", "tensorShape": {"dim": [{"size": "256"}]}}}}}, {"name": "StatefulPartitionedCall/model/lambda_6/ResizeBilinear/size", "op": "Const", "attr": {"value": {"tensor": {"dtype": "DT_INT32", "tensorShape": {"dim": [{"size": "2"}]}}}, "dtype": {"type": "DT_INT32"}}}, {"name": "StatefulPartitionedCall/model/lambda_7/ResizeBilinear/size", "op": "Const", "attr": {"dtype": {"type": "DT_INT32"}, "value": {"tensor": {"dtype": "DT_INT32", "tensorShape": {"dim": [{"size": "2"}]}}}}}, {"name": "StatefulPartitionedCall/model/conv2d_53/Conv2D/ReadVariableOp", "op": "Const", "attr": {"dtype": {"type": "DT_FLOAT"}, "value": {"tensor": {"dtype": "DT_FLOAT", "tensorShape": {"dim": [{"size": "1"}, {"size": "1"}, {"size": "256"}, {"size": "256"}]}}}}}, {"name": "StatefulPartitionedCall/model/tf.math.add_86/Add/y", "op": "Const", "attr": {"value": {"tensor": {"dtype": "DT_FLOAT", "tensorShape": {"dim": [{"size": "256"}]}}}, "dtype": {"type": "DT_FLOAT"}}}, {"name": "StatefulPartitionedCall/model/conv2d_54/Conv2D/ReadVariableOp", "op": "Const", "attr": {"value": {"tensor": {"dtype": "DT_FLOAT", "tensorShape": {"dim": [{"size": "1"}, {"size": "1"}, {"size": "256"}, {"size": "150"}]}}}, "dtype": {"type": "DT_FLOAT"}}}, {"name": "StatefulPartitionedCall/model/tf.math.add_87/Add/y", "op": "Const", "attr": {"value": {"tensor": {"dtype": "DT_FLOAT", "tensorShape": {"dim": [{"size": "150"}]}}}, "dtype": {"type": "DT_FLOAT"}}}, {"name": "StatefulPartitionedCall/model/tf.math.top_k/TopKV2/k", "op": "Const", "attr": {"value": {"tensor": {"dtype": "DT_INT32", "tensorShape": {}}}, "dtype": {"type": "DT_INT32"}}}, {"name": "first_input", "op": "Placeholder", "attr": {"dtype": {"type": "DT_FLOAT"}, "shape": {"shape": {"dim": [{"size": "1"}, {"size": "512"}, {"size": "512"}, {"size": "3"}]}}}}, {"name": "StatefulPartitionedCall/model/zero_padding2d/Pad", "op": "Pad", "input": ["first_input", "StatefulPartitionedCall/model/zero_padding2d/Pad/paddings"], "attr": {"Tpaddings": {"type": "DT_INT32"}, "T": {"type": "DT_FLOAT"}}}, {"name": "StatefulPartitionedCall/model/conv2d/Conv2D", "op": "Conv2D", "input": ["StatefulPartitionedCall/model/zero_padding2d/Pad", "StatefulPartitionedCall/model/conv2d/Conv2D/ReadVariableOp"], "device": "/device:CPU:0", "attr": {"dilations": {"list": {"i": ["1", "1", "1", "1"]}}, "use_cudnn_on_gpu": {"b": true}, "data_format": {"s": "TkhXQw=="}, "T": {"type": "DT_FLOAT"}, "padding": {"s": "VkFMSUQ="}, "strides": {"list": {"i": ["1", "2", "2", "1"]}}, "explicit_paddings": {"list": {}}}}, {"name": "StatefulPartitionedCall/model/tf.math.add/Add", "op": "AddV2", "input": ["StatefulPartitionedCall/model/conv2d/Conv2D", "StatefulPartitionedCall/model/tf.math.add/Add/y"], "attr": {"T": {"type": "DT_FLOAT"}}}, {"name": "StatefulPartitionedCall/model/tf.nn.relu/Relu", "op": "Relu", "input": ["StatefulPartitionedCall/model/tf.math.add/Add"], "attr": {"T": {"type": "DT_FLOAT"}}}, {"name": "StatefulPartitionedCall/model/zero_padding2d_1/Pad", "op": "Pad", "input": ["StatefulPartitionedCall/model/tf.nn.relu/Relu", "StatefulPartitionedCall/model/zero_padding2d_1/Pad/paddings"], "attr": {"Tpaddings": {"type": "DT_INT32"}, "T": {"type": "DT_FLOAT"}}}, {"name": "StatefulPartitionedCall/model/depthwise_conv2d/depthwise", "op": "DepthwiseConv2dNative", "input": ["StatefulPartitionedCall/model/zero_padding2d_1/Pad", "StatefulPartitionedCall/model/depthwise_conv2d/depthwise/ReadVariableOp"], "attr": {"explicit_paddings": {"list": {}}, "dilations": {"list": {"i": ["1", "1", "1", "1"]}}, "data_format": {"s": "TkhXQw=="}, "padding": {"s": "VkFMSUQ="}, "T": {"type": "DT_FLOAT"}, "strides": {"list": {"i": ["1", "1", "1", "1"]}}}}, {"name": "StatefulPartitionedCall/model/tf.math.add_1/Add", "op": "AddV2", "input": ["StatefulPartitionedCall/model/depthwise_conv2d/depthwise", "StatefulPartitionedCall/model/tf.math.add_1/Add/y"], "attr": {"T": {"type": "DT_FLOAT"}}}, {"name": "StatefulPartitionedCall/model/tf.nn.relu_1/Relu", "op": "Relu", "input": ["StatefulPartitionedCall/model/tf.math.add_1/Add"], "attr": {"T": {"type": "DT_FLOAT"}}}, {"name": "StatefulPartitionedCall/model/conv2d_1/Conv2D", "op": "Conv2D", "input": ["StatefulPartitionedCall/model/tf.nn.relu_1/Relu", "StatefulPartitionedCall/model/conv2d_1/Conv2D/ReadVariableOp"], "device": "/device:CPU:0", "attr": {"dilations": {"list": {"i": ["1", "1", "1", "1"]}}, "padding": {"s": "VkFMSUQ="}, "T": {"type": "DT_FLOAT"}, "data_format": {"s": "TkhXQw=="}, "explicit_paddings": {"list": {}}, "use_cudnn_on_gpu": {"b": true}, "strides": {"list": {"i": ["1", "1", "1", "1"]}}}}, {"name": "StatefulPartitionedCall/model/tf.math.add_2/Add", "op": "AddV2", "input": ["StatefulPartitionedCall/model/conv2d_1/Conv2D", "StatefulPartitionedCall/model/tf.math.add_2/Add/y"], "attr": {"T": {"type": "DT_FLOAT"}}}, {"name": "StatefulPartitionedCall/model/tf.math.add_3/Add", "op": "AddV2", "input": ["StatefulPartitionedCall/model/tf.nn.relu/Relu", "StatefulPartitionedCall/model/tf.math.add_2/Add"], "attr": {"T": {"type": "DT_FLOAT"}}}, {"name": "StatefulPartitionedCall/model/conv2d_2/Conv2D", "op": "Conv2D", "input": ["StatefulPartitionedCall/model/tf.math.add_3/Add", "StatefulPartitionedCall/model/conv2d_2/Conv2D/ReadVariableOp"], "device": "/device:CPU:0", "attr": {"T": {"type": "DT_FLOAT"}, "strides": {"list": {"i": ["1", "1", "1", "1"]}}, "use_cudnn_on_gpu": {"b": true}, "explicit_paddings": {"list": {}}, "dilations": {"list": {"i": ["1", "1", "1", "1"]}}, "padding": {"s": "VkFMSUQ="}, "data_format": {"s": "TkhXQw=="}}}, {"name": "StatefulPartitionedCall/model/tf.math.add_4/Add", "op": "AddV2", "input": ["StatefulPartitionedCall/model/conv2d_2/Conv2D", "StatefulPartitionedCall/model/tf.math.add_4/Add/y"], "attr": {"T": {"type": "DT_FLOAT"}}}, {"name": "StatefulPartitionedCall/model/tf.nn.relu_2/Relu", "op": "Relu", "input": ["StatefulPartitionedCall/model/tf.math.add_4/Add"], "attr": {"T": {"type": "DT_FLOAT"}}}, {"name": "StatefulPartitionedCall/model/zero_padding2d_2/Pad", "op": "Pad", "input": ["StatefulPartitionedCall/model/tf.nn.relu_2/Relu", "StatefulPartitionedCall/model/zero_padding2d_2/Pad/paddings"], "attr": {"T": {"type": "DT_FLOAT"}, "Tpaddings": {"type": "DT_INT32"}}}, {"name": "StatefulPartitionedCall/model/depthwise_conv2d_1/depthwise", "op": "DepthwiseConv2dNative", "input": ["StatefulPartitionedCall/model/zero_padding2d_2/Pad", "StatefulPartitionedCall/model/depthwise_conv2d_1/depthwise/ReadVariableOp"], "attr": {"padding": {"s": "VkFMSUQ="}, "dilations": {"list": {"i": ["1", "1", "1", "1"]}}, "data_format": {"s": "TkhXQw=="}, "strides": {"list": {"i": ["1", "2", "2", "1"]}}, "explicit_paddings": {"list": {}}, "T": {"type": "DT_FLOAT"}}}, {"name": "StatefulPartitionedCall/model/tf.math.add_5/Add", "op": "AddV2", "input": ["StatefulPartitionedCall/model/depthwise_conv2d_1/depthwise", "StatefulPartitionedCall/model/tf.math.add_5/Add/y"], "attr": {"T": {"type": "DT_FLOAT"}}}, {"name": "StatefulPartitionedCall/model/tf.nn.relu_3/Relu", "op": "Relu", "input": ["StatefulPartitionedCall/model/tf.math.add_5/Add"], "attr": {"T": {"type": "DT_FLOAT"}}}, {"name": "StatefulPartitionedCall/model/conv2d_3/Conv2D", "op": "Conv2D", "input": ["StatefulPartitionedCall/model/tf.nn.relu_3/Relu", "StatefulPartitionedCall/model/conv2d_3/Conv2D/ReadVariableOp"], "device": "/device:CPU:0", "attr": {"data_format": {"s": "TkhXQw=="}, "T": {"type": "DT_FLOAT"}, "explicit_paddings": {"list": {}}, "padding": {"s": "VkFMSUQ="}, "use_cudnn_on_gpu": {"b": true}, "strides": {"list": {"i": ["1", "1", "1", "1"]}}, "dilations": {"list": {"i": ["1", "1", "1", "1"]}}}}, {"name": "StatefulPartitionedCall/model/tf.math.add_6/Add", "op": "AddV2", "input": ["StatefulPartitionedCall/model/conv2d_3/Conv2D", "StatefulPartitionedCall/model/tf.math.add_6/Add/y"], "attr": {"T": {"type": "DT_FLOAT"}}}, {"name": "StatefulPartitionedCall/model/conv2d_4/Conv2D", "op": "Conv2D", "input": ["StatefulPartitionedCall/model/tf.math.add_6/Add", "StatefulPartitionedCall/model/conv2d_4/Conv2D/ReadVariableOp"], "device": "/device:CPU:0", "attr": {"explicit_paddings": {"list": {}}, "use_cudnn_on_gpu": {"b": true}, "strides": {"list": {"i": ["1", "1", "1", "1"]}}, "dilations": {"list": {"i": ["1", "1", "1", "1"]}}, "padding": {"s": "VkFMSUQ="}, "T": {"type": "DT_FLOAT"}, "data_format": {"s": "TkhXQw=="}}}, {"name": "StatefulPartitionedCall/model/tf.math.add_7/Add", "op": "AddV2", "input": ["StatefulPartitionedCall/model/conv2d_4/Conv2D", "StatefulPartitionedCall/model/tf.math.add_7/Add/y"], "attr": {"T": {"type": "DT_FLOAT"}}}, {"name": "StatefulPartitionedCall/model/tf.nn.relu_4/Relu", "op": "Relu", "input": ["StatefulPartitionedCall/model/tf.math.add_7/Add"], "attr": {"T": {"type": "DT_FLOAT"}}}, {"name": "StatefulPartitionedCall/model/zero_padding2d_3/Pad", "op": "Pad", "input": ["StatefulPartitionedCall/model/tf.nn.relu_4/Relu", "StatefulPartitionedCall/model/zero_padding2d_3/Pad/paddings"], "attr": {"T": {"type": "DT_FLOAT"}, "Tpaddings": {"type": "DT_INT32"}}}, {"name": "StatefulPartitionedCall/model/depthwise_conv2d_2/depthwise", "op": "DepthwiseConv2dNative", "input": ["StatefulPartitionedCall/model/zero_padding2d_3/Pad", "StatefulPartitionedCall/model/depthwise_conv2d_2/depthwise/ReadVariableOp"], "attr": {"T": {"type": "DT_FLOAT"}, "dilations": {"list": {"i": ["1", "1", "1", "1"]}}, "strides": {"list": {"i": ["1", "1", "1", "1"]}}, "padding": {"s": "VkFMSUQ="}, "explicit_paddings": {"list": {}}, "data_format": {"s": "TkhXQw=="}}}, {"name": "StatefulPartitionedCall/model/tf.math.add_8/Add", "op": "AddV2", "input": ["StatefulPartitionedCall/model/depthwise_conv2d_2/depthwise", "StatefulPartitionedCall/model/tf.math.add_8/Add/y"], "attr": {"T": {"type": "DT_FLOAT"}}}, {"name": "StatefulPartitionedCall/model/tf.nn.relu_5/Relu", "op": "Relu", "input": ["StatefulPartitionedCall/model/tf.math.add_8/Add"], "attr": {"T": {"type": "DT_FLOAT"}}}, {"name": "StatefulPartitionedCall/model/conv2d_5/Conv2D", "op": "Conv2D", "input": ["StatefulPartitionedCall/model/tf.nn.relu_5/Relu", "StatefulPartitionedCall/model/conv2d_5/Conv2D/ReadVariableOp"], "device": "/device:CPU:0", "attr": {"padding": {"s": "VkFMSUQ="}, "use_cudnn_on_gpu": {"b": true}, "strides": {"list": {"i": ["1", "1", "1", "1"]}}, "dilations": {"list": {"i": ["1", "1", "1", "1"]}}, "T": {"type": "DT_FLOAT"}, "explicit_paddings": {"list": {}}, "data_format": {"s": "TkhXQw=="}}}, {"name": "StatefulPartitionedCall/model/tf.math.add_9/Add", "op": "AddV2", "input": ["StatefulPartitionedCall/model/conv2d_5/Conv2D", "StatefulPartitionedCall/model/tf.math.add_9/Add/y"], "attr": {"T": {"type": "DT_FLOAT"}}}, {"name": "StatefulPartitionedCall/model/tf.math.add_10/Add", "op": "AddV2", "input": ["StatefulPartitionedCall/model/tf.math.add_6/Add", "StatefulPartitionedCall/model/tf.math.add_9/Add"], "attr": {"T": {"type": "DT_FLOAT"}}}, {"name": "StatefulPartitionedCall/model/average_pooling2d/AvgPool", "op": "AvgPool", "input": ["StatefulPartitionedCall/model/tf.math.add_10/Add"], "attr": {"ksize": {"list": {"i": ["1", "16", "16", "1"]}}, "strides": {"list": {"i": ["1", "16", "16", "1"]}}, "T": {"type": "DT_FLOAT"}, "padding": {"s": "VkFMSUQ="}, "data_format": {"s": "TkhXQw=="}}}, {"name": "StatefulPartitionedCall/model/conv2d_6/Conv2D", "op": "Conv2D", "input": ["StatefulPartitionedCall/model/tf.math.add_10/Add", "StatefulPartitionedCall/model/conv2d_6/Conv2D/ReadVariableOp"], "device": "/device:CPU:0", "attr": {"dilations": {"list": {"i": ["1", "1", "1", "1"]}}, "data_format": {"s": "TkhXQw=="}, "explicit_paddings": {"list": {}}, "T": {"type": "DT_FLOAT"}, "strides": {"list": {"i": ["1", "1", "1", "1"]}}, "use_cudnn_on_gpu": {"b": true}, "padding": {"s": "VkFMSUQ="}}}, {"name": "StatefulPartitionedCall/model/tf.math.add_11/Add", "op": "AddV2", "input": ["StatefulPartitionedCall/model/conv2d_6/Conv2D", "StatefulPartitionedCall/model/tf.math.add_11/Add/y"], "attr": {"T": {"type": "DT_FLOAT"}}}, {"name": "StatefulPartitionedCall/model/tf.nn.relu_6/Relu", "op": "Relu", "input": ["StatefulPartitionedCall/model/tf.math.add_11/Add"], "attr": {"T": {"type": "DT_FLOAT"}}}, {"name": "StatefulPartitionedCall/model/zero_padding2d_4/Pad", "op": "Pad", "input": ["StatefulPartitionedCall/model/tf.nn.relu_6/Relu", "StatefulPartitionedCall/model/zero_padding2d_4/Pad/paddings"], "attr": {"Tpaddings": {"type": "DT_INT32"}, "T": {"type": "DT_FLOAT"}}}, {"name": "StatefulPartitionedCall/model/depthwise_conv2d_3/depthwise", "op": "DepthwiseConv2dNative", "input": ["StatefulPartitionedCall/model/zero_padding2d_4/Pad", "StatefulPartitionedCall/model/depthwise_conv2d_3/depthwise/ReadVariableOp"], "attr": {"strides": {"list": {"i": ["1", "2", "2", "1"]}}, "padding": {"s": "VkFMSUQ="}, "data_format": {"s": "TkhXQw=="}, "dilations": {"list": {"i": ["1", "1", "1", "1"]}}, "explicit_paddings": {"list": {}}, "T": {"type": "DT_FLOAT"}}}, {"name": "StatefulPartitionedCall/model/tf.math.add_12/Add", "op": "AddV2", "input": ["StatefulPartitionedCall/model/depthwise_conv2d_3/depthwise", "StatefulPartitionedCall/model/tf.math.add_12/Add/y"], "attr": {"T": {"type": "DT_FLOAT"}}}, {"name": "StatefulPartitionedCall/model/tf.nn.relu_7/Relu", "op": "Relu", "input": ["StatefulPartitionedCall/model/tf.math.add_12/Add"], "attr": {"T": {"type": "DT_FLOAT"}}}, {"name": "StatefulPartitionedCall/model/conv2d_7/Conv2D", "op": "Conv2D", "input": ["StatefulPartitionedCall/model/tf.nn.relu_7/Relu", "StatefulPartitionedCall/model/conv2d_7/Conv2D/ReadVariableOp"], "device": "/device:CPU:0", "attr": {"dilations": {"list": {"i": ["1", "1", "1", "1"]}}, "T": {"type": "DT_FLOAT"}, "data_format": {"s": "TkhXQw=="}, "strides": {"list": {"i": ["1", "1", "1", "1"]}}, "padding": {"s": "VkFMSUQ="}, "explicit_paddings": {"list": {}}, "use_cudnn_on_gpu": {"b": true}}}, {"name": "StatefulPartitionedCall/model/tf.math.add_13/Add", "op": "AddV2", "input": ["StatefulPartitionedCall/model/conv2d_7/Conv2D", "StatefulPartitionedCall/model/tf.math.add_13/Add/y"], "attr": {"T": {"type": "DT_FLOAT"}}}, {"name": "StatefulPartitionedCall/model/conv2d_8/Conv2D", "op": "Conv2D", "input": ["StatefulPartitionedCall/model/tf.math.add_13/Add", "StatefulPartitionedCall/model/conv2d_8/Conv2D/ReadVariableOp"], "device": "/device:CPU:0", "attr": {"dilations": {"list": {"i": ["1", "1", "1", "1"]}}, "data_format": {"s": "TkhXQw=="}, "strides": {"list": {"i": ["1", "1", "1", "1"]}}, "padding": {"s": "VkFMSUQ="}, "use_cudnn_on_gpu": {"b": true}, "T": {"type": "DT_FLOAT"}, "explicit_paddings": {"list": {}}}}, {"name": "StatefulPartitionedCall/model/tf.math.add_14/Add", "op": "AddV2", "input": ["StatefulPartitionedCall/model/conv2d_8/Conv2D", "StatefulPartitionedCall/model/tf.math.add_14/Add/y"], "attr": {"T": {"type": "DT_FLOAT"}}}, {"name": "StatefulPartitionedCall/model/tf.nn.relu_8/Relu", "op": "Relu", "input": ["StatefulPartitionedCall/model/tf.math.add_14/Add"], "attr": {"T": {"type": "DT_FLOAT"}}}, {"name": "StatefulPartitionedCall/model/zero_padding2d_5/Pad", "op": "Pad", "input": ["StatefulPartitionedCall/model/tf.nn.relu_8/Relu", "StatefulPartitionedCall/model/zero_padding2d_5/Pad/paddings"], "attr": {"T": {"type": "DT_FLOAT"}, "Tpaddings": {"type": "DT_INT32"}}}, {"name": "StatefulPartitionedCall/model/depthwise_conv2d_4/depthwise", "op": "DepthwiseConv2dNative", "input": ["StatefulPartitionedCall/model/zero_padding2d_5/Pad", "StatefulPartitionedCall/model/depthwise_conv2d_4/depthwise/ReadVariableOp"], "attr": {"T": {"type": "DT_FLOAT"}, "padding": {"s": "VkFMSUQ="}, "explicit_paddings": {"list": {}}, "data_format": {"s": "TkhXQw=="}, "strides": {"list": {"i": ["1", "1", "1", "1"]}}, "dilations": {"list": {"i": ["1", "1", "1", "1"]}}}}, {"name": "StatefulPartitionedCall/model/tf.math.add_15/Add", "op": "AddV2", "input": ["StatefulPartitionedCall/model/depthwise_conv2d_4/depthwise", "StatefulPartitionedCall/model/tf.math.add_15/Add/y"], "attr": {"T": {"type": "DT_FLOAT"}}}, {"name": "StatefulPartitionedCall/model/tf.nn.relu_9/Relu", "op": "Relu", "input": ["StatefulPartitionedCall/model/tf.math.add_15/Add"], "attr": {"T": {"type": "DT_FLOAT"}}}, {"name": "StatefulPartitionedCall/model/conv2d_9/Conv2D", "op": "Conv2D", "input": ["StatefulPartitionedCall/model/tf.nn.relu_9/Relu", "StatefulPartitionedCall/model/conv2d_9/Conv2D/ReadVariableOp"], "device": "/device:CPU:0", "attr": {"strides": {"list": {"i": ["1", "1", "1", "1"]}}, "dilations": {"list": {"i": ["1", "1", "1", "1"]}}, "explicit_paddings": {"list": {}}, "padding": {"s": "VkFMSUQ="}, "T": {"type": "DT_FLOAT"}, "use_cudnn_on_gpu": {"b": true}, "data_format": {"s": "TkhXQw=="}}}, {"name": "StatefulPartitionedCall/model/tf.math.add_16/Add", "op": "AddV2", "input": ["StatefulPartitionedCall/model/conv2d_9/Conv2D", "StatefulPartitionedCall/model/tf.math.add_16/Add/y"], "attr": {"T": {"type": "DT_FLOAT"}}}, {"name": "StatefulPartitionedCall/model/tf.math.add_17/Add", "op": "AddV2", "input": ["StatefulPartitionedCall/model/tf.math.add_13/Add", "StatefulPartitionedCall/model/tf.math.add_16/Add"], "attr": {"T": {"type": "DT_FLOAT"}}}, {"name": "StatefulPartitionedCall/model/conv2d_10/Conv2D", "op": "Conv2D", "input": ["StatefulPartitionedCall/model/tf.math.add_17/Add", "StatefulPartitionedCall/model/conv2d_10/Conv2D/ReadVariableOp"], "device": "/device:CPU:0", "attr": {"use_cudnn_on_gpu": {"b": true}, "explicit_paddings": {"list": {}}, "strides": {"list": {"i": ["1", "1", "1", "1"]}}, "padding": {"s": "VkFMSUQ="}, "data_format": {"s": "TkhXQw=="}, "dilations": {"list": {"i": ["1", "1", "1", "1"]}}, "T": {"type": "DT_FLOAT"}}}, {"name": "StatefulPartitionedCall/model/average_pooling2d_1/AvgPool", "op": "AvgPool", "input": ["StatefulPartitionedCall/model/tf.math.add_17/Add"], "attr": {"padding": {"s": "VkFMSUQ="}, "T": {"type": "DT_FLOAT"}, "data_format": {"s": "TkhXQw=="}, "strides": {"list": {"i": ["1", "8", "8", "1"]}}, "ksize": {"list": {"i": ["1", "8", "8", "1"]}}}}, {"name": "StatefulPartitionedCall/model/conv2d_11/Conv2D", "op": "Conv2D", "input": ["StatefulPartitionedCall/model/tf.math.add_17/Add", "StatefulPartitionedCall/model/conv2d_11/Conv2D/ReadVariableOp"], "device": "/device:CPU:0", "attr": {"padding": {"s": "VkFMSUQ="}, "data_format": {"s": "TkhXQw=="}, "T": {"type": "DT_FLOAT"}, "strides": {"list": {"i": ["1", "1", "1", "1"]}}, "use_cudnn_on_gpu": {"b": true}, "explicit_paddings": {"list": {}}, "dilations": {"list": {"i": ["1", "1", "1", "1"]}}}}, {"name": "StatefulPartitionedCall/model/tf.math.add_18/Add", "op": "AddV2", "input": ["StatefulPartitionedCall/model/conv2d_10/Conv2D", "StatefulPartitionedCall/model/tf.math.add_18/Add/y"], "attr": {"T": {"type": "DT_FLOAT"}}}, {"name": "StatefulPartitionedCall/model/tf.math.add_19/Add", "op": "AddV2", "input": ["StatefulPartitionedCall/model/conv2d_11/Conv2D", "StatefulPartitionedCall/model/tf.math.add_19/Add/y"], "attr": {"T": {"type": "DT_FLOAT"}}}, {"name": "StatefulPartitionedCall/model/tf.nn.relu_10/Relu", "op": "Relu", "input": ["StatefulPartitionedCall/model/tf.math.add_19/Add"], "attr": {"T": {"type": "DT_FLOAT"}}}, {"name": "StatefulPartitionedCall/model/zero_padding2d_6/Pad", "op": "Pad", "input": ["StatefulPartitionedCall/model/tf.nn.relu_10/Relu", "StatefulPartitionedCall/model/zero_padding2d_6/Pad/paddings"], "attr": {"Tpaddings": {"type": "DT_INT32"}, "T": {"type": "DT_FLOAT"}}}, {"name": "StatefulPartitionedCall/model/depthwise_conv2d_5/depthwise", "op": "DepthwiseConv2dNative", "input": ["StatefulPartitionedCall/model/zero_padding2d_6/Pad", "StatefulPartitionedCall/model/depthwise_conv2d_5/depthwise/ReadVariableOp"], "attr": {"explicit_paddings": {"list": {}}, "strides": {"list": {"i": ["1", "2", "2", "1"]}}, "padding": {"s": "VkFMSUQ="}, "T": {"type": "DT_FLOAT"}, "dilations": {"list": {"i": ["1", "1", "1", "1"]}}, "data_format": {"s": "TkhXQw=="}}}, {"name": "StatefulPartitionedCall/model/tf.math.add_20/Add", "op": "AddV2", "input": ["StatefulPartitionedCall/model/depthwise_conv2d_5/depthwise", "StatefulPartitionedCall/model/tf.math.add_20/Add/y"], "attr": {"T": {"type": "DT_FLOAT"}}}, {"name": "StatefulPartitionedCall/model/tf.nn.relu_11/Relu", "op": "Relu", "input": ["StatefulPartitionedCall/model/tf.math.add_20/Add"], "attr": {"T": {"type": "DT_FLOAT"}}}, {"name": "StatefulPartitionedCall/model/conv2d_12/Conv2D", "op": "Conv2D", "input": ["StatefulPartitionedCall/model/tf.nn.relu_11/Relu", "StatefulPartitionedCall/model/conv2d_12/Conv2D/ReadVariableOp"], "device": "/device:CPU:0", "attr": {"data_format": {"s": "TkhXQw=="}, "use_cudnn_on_gpu": {"b": true}, "strides": {"list": {"i": ["1", "1", "1", "1"]}}, "padding": {"s": "VkFMSUQ="}, "explicit_paddings": {"list": {}}, "dilations": {"list": {"i": ["1", "1", "1", "1"]}}, "T": {"type": "DT_FLOAT"}}}, {"name": "StatefulPartitionedCall/model/tf.math.add_21/Add", "op": "AddV2", "input": ["StatefulPartitionedCall/model/conv2d_12/Conv2D", "StatefulPartitionedCall/model/tf.math.add_21/Add/y"], "attr": {"T": {"type": "DT_FLOAT"}}}, {"name": "StatefulPartitionedCall/model/conv2d_13/Conv2D", "op": "Conv2D", "input": ["StatefulPartitionedCall/model/tf.math.add_21/Add", "StatefulPartitionedCall/model/conv2d_13/Conv2D/ReadVariableOp"], "device": "/device:CPU:0", "attr": {"T": {"type": "DT_FLOAT"}, "strides": {"list": {"i": ["1", "1", "1", "1"]}}, "padding": {"s": "VkFMSUQ="}, "explicit_paddings": {"list": {}}, "data_format": {"s": "TkhXQw=="}, "use_cudnn_on_gpu": {"b": true}, "dilations": {"list": {"i": ["1", "1", "1", "1"]}}}}, {"name": "StatefulPartitionedCall/model/tf.math.add_22/Add", "op": "AddV2", "input": ["StatefulPartitionedCall/model/conv2d_13/Conv2D", "StatefulPartitionedCall/model/tf.math.add_22/Add/y"], "attr": {"T": {"type": "DT_FLOAT"}}}, {"name": "StatefulPartitionedCall/model/tf.nn.relu_12/Relu", "op": "Relu", "input": ["StatefulPartitionedCall/model/tf.math.add_22/Add"], "attr": {"T": {"type": "DT_FLOAT"}}}, {"name": "StatefulPartitionedCall/model/zero_padding2d_7/Pad", "op": "Pad", "input": ["StatefulPartitionedCall/model/tf.nn.relu_12/Relu", "StatefulPartitionedCall/model/zero_padding2d_7/Pad/paddings"], "attr": {"Tpaddings": {"type": "DT_INT32"}, "T": {"type": "DT_FLOAT"}}}, {"name": "StatefulPartitionedCall/model/depthwise_conv2d_6/depthwise", "op": "DepthwiseConv2dNative", "input": ["StatefulPartitionedCall/model/zero_padding2d_7/Pad", "StatefulPartitionedCall/model/depthwise_conv2d_6/depthwise/ReadVariableOp"], "attr": {"dilations": {"list": {"i": ["1", "1", "1", "1"]}}, "data_format": {"s": "TkhXQw=="}, "strides": {"list": {"i": ["1", "1", "1", "1"]}}, "T": {"type": "DT_FLOAT"}, "padding": {"s": "VkFMSUQ="}, "explicit_paddings": {"list": {}}}}, {"name": "StatefulPartitionedCall/model/tf.math.add_23/Add", "op": "AddV2", "input": ["StatefulPartitionedCall/model/depthwise_conv2d_6/depthwise", "StatefulPartitionedCall/model/tf.math.add_23/Add/y"], "attr": {"T": {"type": "DT_FLOAT"}}}, {"name": "StatefulPartitionedCall/model/tf.nn.relu_13/Relu", "op": "Relu", "input": ["StatefulPartitionedCall/model/tf.math.add_23/Add"], "attr": {"T": {"type": "DT_FLOAT"}}}, {"name": "StatefulPartitionedCall/model/conv2d_14/Conv2D", "op": "Conv2D", "input": ["StatefulPartitionedCall/model/tf.nn.relu_13/Relu", "StatefulPartitionedCall/model/conv2d_14/Conv2D/ReadVariableOp"], "device": "/device:CPU:0", "attr": {"use_cudnn_on_gpu": {"b": true}, "explicit_paddings": {"list": {}}, "strides": {"list": {"i": ["1", "1", "1", "1"]}}, "padding": {"s": "VkFMSUQ="}, "dilations": {"list": {"i": ["1", "1", "1", "1"]}}, "data_format": {"s": "TkhXQw=="}, "T": {"type": "DT_FLOAT"}}}, {"name": "StatefulPartitionedCall/model/tf.math.add_24/Add", "op": "AddV2", "input": ["StatefulPartitionedCall/model/conv2d_14/Conv2D", "StatefulPartitionedCall/model/tf.math.add_24/Add/y"], "attr": {"T": {"type": "DT_FLOAT"}}}, {"name": "StatefulPartitionedCall/model/tf.math.add_25/Add", "op": "AddV2", "input": ["StatefulPartitionedCall/model/tf.math.add_21/Add", "StatefulPartitionedCall/model/tf.math.add_24/Add"], "attr": {"T": {"type": "DT_FLOAT"}}}, {"name": "StatefulPartitionedCall/model/conv2d_47/Conv2D", "op": "Conv2D", "input": ["StatefulPartitionedCall/model/tf.math.add_25/Add", "StatefulPartitionedCall/model/conv2d_47/Conv2D/ReadVariableOp"], "device": "/device:CPU:0", "attr": {"strides": {"list": {"i": ["1", "1", "1", "1"]}}, "dilations": {"list": {"i": ["1", "1", "1", "1"]}}, "explicit_paddings": {"list": {}}, "data_format": {"s": "TkhXQw=="}, "T": {"type": "DT_FLOAT"}, "use_cudnn_on_gpu": {"b": true}, "padding": {"s": "VkFMSUQ="}}}, {"name": "StatefulPartitionedCall/model/average_pooling2d_2/AvgPool", "op": "AvgPool", "input": ["StatefulPartitionedCall/model/tf.math.add_25/Add"], "attr": {"data_format": {"s": "TkhXQw=="}, "strides": {"list": {"i": ["1", "4", "4", "1"]}}, "T": {"type": "DT_FLOAT"}, "padding": {"s": "VkFMSUQ="}, "ksize": {"list": {"i": ["1", "4", "4", "1"]}}}}, {"name": "StatefulPartitionedCall/model/conv2d_15/Conv2D", "op": "Conv2D", "input": ["StatefulPartitionedCall/model/tf.math.add_25/Add", "StatefulPartitionedCall/model/conv2d_15/Conv2D/ReadVariableOp"], "device": "/device:CPU:0", "attr": {"data_format": {"s": "TkhXQw=="}, "explicit_paddings": {"list": {}}, "T": {"type": "DT_FLOAT"}, "dilations": {"list": {"i": ["1", "1", "1", "1"]}}, "use_cudnn_on_gpu": {"b": true}, "padding": {"s": "VkFMSUQ="}, "strides": {"list": {"i": ["1", "1", "1", "1"]}}}}, {"name": "StatefulPartitionedCall/model/tf.math.add_76/Add", "op": "AddV2", "input": ["StatefulPartitionedCall/model/conv2d_47/Conv2D", "StatefulPartitionedCall/model/tf.math.add_76/Add/y"], "attr": {"T": {"type": "DT_FLOAT"}}}, {"name": "StatefulPartitionedCall/model/tf.math.add_26/Add", "op": "AddV2", "input": ["StatefulPartitionedCall/model/conv2d_15/Conv2D", "StatefulPartitionedCall/model/tf.math.add_26/Add/y"], "attr": {"T": {"type": "DT_FLOAT"}}}, {"name": "StatefulPartitionedCall/model/tf.nn.relu_14/Relu", "op": "Relu", "input": ["StatefulPartitionedCall/model/tf.math.add_26/Add"], "attr": {"T": {"type": "DT_FLOAT"}}}, {"name": "StatefulPartitionedCall/model/zero_padding2d_8/Pad", "op": "Pad", "input": ["StatefulPartitionedCall/model/tf.nn.relu_14/Relu", "StatefulPartitionedCall/model/zero_padding2d_8/Pad/paddings"], "attr": {"Tpaddings": {"type": "DT_INT32"}, "T": {"type": "DT_FLOAT"}}}, {"name": "StatefulPartitionedCall/model/depthwise_conv2d_7/depthwise", "op": "DepthwiseConv2dNative", "input": ["StatefulPartitionedCall/model/zero_padding2d_8/Pad", "StatefulPartitionedCall/model/depthwise_conv2d_7/depthwise/ReadVariableOp"], "attr": {"T": {"type": "DT_FLOAT"}, "padding": {"s": "VkFMSUQ="}, "dilations": {"list": {"i": ["1", "1", "1", "1"]}}, "data_format": {"s": "TkhXQw=="}, "explicit_paddings": {"list": {}}, "strides": {"list": {"i": ["1", "2", "2", "1"]}}}}, {"name": "StatefulPartitionedCall/model/tf.math.add_27/Add", "op": "AddV2", "input": ["StatefulPartitionedCall/model/depthwise_conv2d_7/depthwise", "StatefulPartitionedCall/model/tf.math.add_27/Add/y"], "attr": {"T": {"type": "DT_FLOAT"}}}, {"name": "StatefulPartitionedCall/model/tf.nn.relu_15/Relu", "op": "Relu", "input": ["StatefulPartitionedCall/model/tf.math.add_27/Add"], "attr": {"T": {"type": "DT_FLOAT"}}}, {"name": "StatefulPartitionedCall/model/conv2d_16/Conv2D", "op": "Conv2D", "input": ["StatefulPartitionedCall/model/tf.nn.relu_15/Relu", "StatefulPartitionedCall/model/conv2d_16/Conv2D/ReadVariableOp"], "device": "/device:CPU:0", "attr": {"dilations": {"list": {"i": ["1", "1", "1", "1"]}}, "data_format": {"s": "TkhXQw=="}, "explicit_paddings": {"list": {}}, "use_cudnn_on_gpu": {"b": true}, "padding": {"s": "VkFMSUQ="}, "strides": {"list": {"i": ["1", "1", "1", "1"]}}, "T": {"type": "DT_FLOAT"}}}, {"name": "StatefulPartitionedCall/model/tf.math.add_28/Add", "op": "AddV2", "input": ["StatefulPartitionedCall/model/conv2d_16/Conv2D", "StatefulPartitionedCall/model/tf.math.add_28/Add/y"], "attr": {"T": {"type": "DT_FLOAT"}}}, {"name": "StatefulPartitionedCall/model/conv2d_17/Conv2D", "op": "Conv2D", "input": ["StatefulPartitionedCall/model/tf.math.add_28/Add", "StatefulPartitionedCall/model/conv2d_17/Conv2D/ReadVariableOp"], "device": "/device:CPU:0", "attr": {"data_format": {"s": "TkhXQw=="}, "strides": {"list": {"i": ["1", "1", "1", "1"]}}, "dilations": {"list": {"i": ["1", "1", "1", "1"]}}, "use_cudnn_on_gpu": {"b": true}, "T": {"type": "DT_FLOAT"}, "padding": {"s": "VkFMSUQ="}, "explicit_paddings": {"list": {}}}}, {"name": "StatefulPartitionedCall/model/tf.math.add_29/Add", "op": "AddV2", "input": ["StatefulPartitionedCall/model/conv2d_17/Conv2D", "StatefulPartitionedCall/model/tf.math.add_29/Add/y"], "attr": {"T": {"type": "DT_FLOAT"}}}, {"name": "StatefulPartitionedCall/model/tf.nn.relu_16/Relu", "op": "Relu", "input": ["StatefulPartitionedCall/model/tf.math.add_29/Add"], "attr": {"T": {"type": "DT_FLOAT"}}}, {"name": "StatefulPartitionedCall/model/zero_padding2d_9/Pad", "op": "Pad", "input": ["StatefulPartitionedCall/model/tf.nn.relu_16/Relu", "StatefulPartitionedCall/model/zero_padding2d_9/Pad/paddings"], "attr": {"Tpaddings": {"type": "DT_INT32"}, "T": {"type": "DT_FLOAT"}}}, {"name": "StatefulPartitionedCall/model/depthwise_conv2d_8/depthwise", "op": "DepthwiseConv2dNative", "input": ["StatefulPartitionedCall/model/zero_padding2d_9/Pad", "StatefulPartitionedCall/model/depthwise_conv2d_8/depthwise/ReadVariableOp"], "attr": {"strides": {"list": {"i": ["1", "1", "1", "1"]}}, "explicit_paddings": {"list": {}}, "data_format": {"s": "TkhXQw=="}, "T": {"type": "DT_FLOAT"}, "padding": {"s": "VkFMSUQ="}, "dilations": {"list": {"i": ["1", "1", "1", "1"]}}}}, {"name": "StatefulPartitionedCall/model/tf.math.add_30/Add", "op": "AddV2", "input": ["StatefulPartitionedCall/model/depthwise_conv2d_8/depthwise", "StatefulPartitionedCall/model/tf.math.add_30/Add/y"], "attr": {"T": {"type": "DT_FLOAT"}}}, {"name": "StatefulPartitionedCall/model/tf.nn.relu_17/Relu", "op": "Relu", "input": ["StatefulPartitionedCall/model/tf.math.add_30/Add"], "attr": {"T": {"type": "DT_FLOAT"}}}, {"name": "StatefulPartitionedCall/model/conv2d_18/Conv2D", "op": "Conv2D", "input": ["StatefulPartitionedCall/model/tf.nn.relu_17/Relu", "StatefulPartitionedCall/model/conv2d_18/Conv2D/ReadVariableOp"], "device": "/device:CPU:0", "attr": {"dilations": {"list": {"i": ["1", "1", "1", "1"]}}, "data_format": {"s": "TkhXQw=="}, "explicit_paddings": {"list": {}}, "T": {"type": "DT_FLOAT"}, "use_cudnn_on_gpu": {"b": true}, "padding": {"s": "VkFMSUQ="}, "strides": {"list": {"i": ["1", "1", "1", "1"]}}}}, {"name": "StatefulPartitionedCall/model/tf.math.add_31/Add", "op": "AddV2", "input": ["StatefulPartitionedCall/model/conv2d_18/Conv2D", "StatefulPartitionedCall/model/tf.math.add_31/Add/y"], "attr": {"T": {"type": "DT_FLOAT"}}}, {"name": "StatefulPartitionedCall/model/tf.math.add_32/Add", "op": "AddV2", "input": ["StatefulPartitionedCall/model/tf.math.add_28/Add", "StatefulPartitionedCall/model/tf.math.add_31/Add"], "attr": {"T": {"type": "DT_FLOAT"}}}, {"name": "StatefulPartitionedCall/model/conv2d_19/Conv2D", "op": "Conv2D", "input": ["StatefulPartitionedCall/model/tf.math.add_32/Add", "StatefulPartitionedCall/model/conv2d_19/Conv2D/ReadVariableOp"], "device": "/device:CPU:0", "attr": {"use_cudnn_on_gpu": {"b": true}, "T": {"type": "DT_FLOAT"}, "strides": {"list": {"i": ["1", "1", "1", "1"]}}, "padding": {"s": "VkFMSUQ="}, "data_format": {"s": "TkhXQw=="}, "dilations": {"list": {"i": ["1", "1", "1", "1"]}}, "explicit_paddings": {"list": {}}}}, {"name": "StatefulPartitionedCall/model/tf.math.add_33/Add", "op": "AddV2", "input": ["StatefulPartitionedCall/model/conv2d_19/Conv2D", "StatefulPartitionedCall/model/tf.math.add_33/Add/y"], "attr": {"T": {"type": "DT_FLOAT"}}}, {"name": "StatefulPartitionedCall/model/tf.nn.relu_18/Relu", "op": "Relu", "input": ["StatefulPartitionedCall/model/tf.math.add_33/Add"], "attr": {"T": {"type": "DT_FLOAT"}}}, {"name": "StatefulPartitionedCall/model/zero_padding2d_10/Pad", "op": "Pad", "input": ["StatefulPartitionedCall/model/tf.nn.relu_18/Relu", "StatefulPartitionedCall/model/zero_padding2d_10/Pad/paddings"], "attr": {"Tpaddings": {"type": "DT_INT32"}, "T": {"type": "DT_FLOAT"}}}, {"name": "StatefulPartitionedCall/model/depthwise_conv2d_9/depthwise", "op": "DepthwiseConv2dNative", "input": ["StatefulPartitionedCall/model/zero_padding2d_10/Pad", "StatefulPartitionedCall/model/depthwise_conv2d_9/depthwise/ReadVariableOp"], "attr": {"strides": {"list": {"i": ["1", "1", "1", "1"]}}, "dilations": {"list": {"i": ["1", "1", "1", "1"]}}, "T": {"type": "DT_FLOAT"}, "data_format": {"s": "TkhXQw=="}, "padding": {"s": "VkFMSUQ="}, "explicit_paddings": {"list": {}}}}, {"name": "StatefulPartitionedCall/model/tf.math.add_34/Add", "op": "AddV2", "input": ["StatefulPartitionedCall/model/depthwise_conv2d_9/depthwise", "StatefulPartitionedCall/model/tf.math.add_34/Add/y"], "attr": {"T": {"type": "DT_FLOAT"}}}, {"name": "StatefulPartitionedCall/model/tf.nn.relu_19/Relu", "op": "Relu", "input": ["StatefulPartitionedCall/model/tf.math.add_34/Add"], "attr": {"T": {"type": "DT_FLOAT"}}}, {"name": "StatefulPartitionedCall/model/conv2d_20/Conv2D", "op": "Conv2D", "input": ["StatefulPartitionedCall/model/tf.nn.relu_19/Relu", "StatefulPartitionedCall/model/conv2d_20/Conv2D/ReadVariableOp"], "device": "/device:CPU:0", "attr": {"dilations": {"list": {"i": ["1", "1", "1", "1"]}}, "explicit_paddings": {"list": {}}, "data_format": {"s": "TkhXQw=="}, "use_cudnn_on_gpu": {"b": true}, "strides": {"list": {"i": ["1", "1", "1", "1"]}}, "T": {"type": "DT_FLOAT"}, "padding": {"s": "VkFMSUQ="}}}, {"name": "StatefulPartitionedCall/model/tf.math.add_35/Add", "op": "AddV2", "input": ["StatefulPartitionedCall/model/conv2d_20/Conv2D", "StatefulPartitionedCall/model/tf.math.add_35/Add/y"], "attr": {"T": {"type": "DT_FLOAT"}}}, {"name": "StatefulPartitionedCall/model/tf.math.add_36/Add", "op": "AddV2", "input": ["StatefulPartitionedCall/model/tf.math.add_32/Add", "StatefulPartitionedCall/model/tf.math.add_35/Add"], "attr": {"T": {"type": "DT_FLOAT"}}}, {"name": "StatefulPartitionedCall/model/conv2d_50/Conv2D", "op": "Conv2D", "input": ["StatefulPartitionedCall/model/tf.math.add_36/Add", "StatefulPartitionedCall/model/conv2d_50/Conv2D/ReadVariableOp"], "device": "/device:CPU:0", "attr": {"strides": {"list": {"i": ["1", "1", "1", "1"]}}, "data_format": {"s": "TkhXQw=="}, "padding": {"s": "VkFMSUQ="}, "T": {"type": "DT_FLOAT"}, "use_cudnn_on_gpu": {"b": true}, "explicit_paddings": {"list": {}}, "dilations": {"list": {"i": ["1", "1", "1", "1"]}}}}, {"name": "StatefulPartitionedCall/model/average_pooling2d_3/AvgPool", "op": "AvgPool", "input": ["StatefulPartitionedCall/model/tf.math.add_36/Add"], "attr": {"padding": {"s": "VkFMSUQ="}, "data_format": {"s": "TkhXQw=="}, "strides": {"list": {"i": ["1", "2", "2", "1"]}}, "T": {"type": "DT_FLOAT"}, "ksize": {"list": {"i": ["1", "2", "2", "1"]}}}}, {"name": "StatefulPartitionedCall/model/tf.math.add_81/Add", "op": "AddV2", "input": ["StatefulPartitionedCall/model/conv2d_50/Conv2D", "StatefulPartitionedCall/model/tf.math.add_81/Add/y"], "attr": {"T": {"type": "DT_FLOAT"}}}, {"name": "StatefulPartitionedCall/model/tf.concat/concat", "op": "ConcatV2", "input": ["StatefulPartitionedCall/model/average_pooling2d/AvgPool", "StatefulPartitionedCall/model/average_pooling2d_1/AvgPool", "StatefulPartitionedCall/model/average_pooling2d_2/AvgPool", "StatefulPartitionedCall/model/average_pooling2d_3/AvgPool", "StatefulPartitionedCall/model/tf.concat/concat/axis"], "attr": {"T": {"type": "DT_FLOAT"}, "N": {"i": "4"}, "Tidx": {"type": "DT_INT32"}}}, {"name": "StatefulPartitionedCall/model/conv2d_21/Conv2D", "op": "Conv2D", "input": ["StatefulPartitionedCall/model/tf.concat/concat", "StatefulPartitionedCall/model/conv2d_21/Conv2D/ReadVariableOp"], "device": "/device:CPU:0", "attr": {"T": {"type": "DT_FLOAT"}, "use_cudnn_on_gpu": {"b": true}, "strides": {"list": {"i": ["1", "1", "1", "1"]}}, "dilations": {"list": {"i": ["1", "1", "1", "1"]}}, "explicit_paddings": {"list": {}}, "padding": {"s": "VkFMSUQ="}, "data_format": {"s": "TkhXQw=="}}}, {"name": "StatefulPartitionedCall/model/conv2d_22/Conv2D", "op": "Conv2D", "input": ["StatefulPartitionedCall/model/tf.concat/concat", "StatefulPartitionedCall/model/conv2d_22/Conv2D/ReadVariableOp"], "device": "/device:CPU:0", "attr": {"strides": {"list": {"i": ["1", "1", "1", "1"]}}, "use_cudnn_on_gpu": {"b": true}, "T": {"type": "DT_FLOAT"}, "dilations": {"list": {"i": ["1", "1", "1", "1"]}}, "padding": {"s": "VkFMSUQ="}, "explicit_paddings": {"list": {}}, "data_format": {"s": "TkhXQw=="}}}, {"name": "StatefulPartitionedCall/model/conv2d_23/Conv2D", "op": "Conv2D", "input": ["StatefulPartitionedCall/model/tf.concat/concat", "StatefulPartitionedCall/model/conv2d_23/Conv2D/ReadVariableOp"], "device": "/device:CPU:0", "attr": {"T": {"type": "DT_FLOAT"}, "dilations": {"list": {"i": ["1", "1", "1", "1"]}}, "use_cudnn_on_gpu": {"b": true}, "data_format": {"s": "TkhXQw=="}, "explicit_paddings": {"list": {}}, "strides": {"list": {"i": ["1", "1", "1", "1"]}}, "padding": {"s": "VkFMSUQ="}}}, {"name": "StatefulPartitionedCall/model/tf.math.add_37/Add", "op": "AddV2", "input": ["StatefulPartitionedCall/model/conv2d_21/Conv2D", "StatefulPartitionedCall/model/tf.math.add_37/Add/y"], "attr": {"T": {"type": "DT_FLOAT"}}}, {"name": "StatefulPartitionedCall/model/tf.math.add_38/Add", "op": "AddV2", "input": ["StatefulPartitionedCall/model/conv2d_22/Conv2D", "StatefulPartitionedCall/model/tf.math.add_38/Add/y"], "attr": {"T": {"type": "DT_FLOAT"}}}, {"name": "StatefulPartitionedCall/model/tf.math.add_39/Add", "op": "AddV2", "input": ["StatefulPartitionedCall/model/conv2d_23/Conv2D", "StatefulPartitionedCall/model/tf.math.add_39/Add/y"], "attr": {"T": {"type": "DT_FLOAT"}}}, {"name": "StatefulPartitionedCall/model/tf.reshape/Reshape", "op": "Reshape", "input": ["StatefulPartitionedCall/model/tf.math.add_37/Add", "StatefulPartitionedCall/model/tf.reshape/Reshape/shape"], "attr": {"T": {"type": "DT_FLOAT"}, "Tshape": {"type": "DT_INT32"}}}, {"name": "StatefulPartitionedCall/model/tf.reshape_1/Reshape", "op": "Reshape", "input": ["StatefulPartitionedCall/model/tf.math.add_38/Add", "StatefulPartitionedCall/model/tf.reshape_1/Reshape/shape"], "attr": {"Tshape": {"type": "DT_INT32"}, "T": {"type": "DT_FLOAT"}}}, {"name": "StatefulPartitionedCall/model/tf.reshape_4/Reshape", "op": "Reshape", "input": ["StatefulPartitionedCall/model/tf.math.add_39/Add", "StatefulPartitionedCall/model/tf.reshape_4/Reshape/shape"], "attr": {"Tshape": {"type": "DT_INT32"}, "T": {"type": "DT_FLOAT"}}}, {"name": "StatefulPartitionedCall/model/tf.compat.v1.transpose/transpose", "op": "Transpose", "input": ["StatefulPartitionedCall/model/tf.reshape/Reshape", "StatefulPartitionedCall/model/tf.compat.v1.transpose/transpose/perm"], "attr": {"T": {"type": "DT_FLOAT"}, "Tperm": {"type": "DT_INT32"}}}, {"name": "StatefulPartitionedCall/model/tf.compat.v1.transpose_1/transpose", "op": "Transpose", "input": ["StatefulPartitionedCall/model/tf.reshape_1/Reshape", "StatefulPartitionedCall/model/tf.compat.v1.transpose_1/transpose/perm"], "attr": {"T": {"type": "DT_FLOAT"}, "Tperm": {"type": "DT_INT32"}}}, {"name": "StatefulPartitionedCall/model/tf.compat.v1.transpose_2/transpose", "op": "Transpose", "input": ["StatefulPartitionedCall/model/tf.reshape_4/Reshape", "StatefulPartitionedCall/model/tf.compat.v1.transpose_2/transpose/perm"], "attr": {"Tperm": {"type": "DT_INT32"}, "T": {"type": "DT_FLOAT"}}}, {"name": "StatefulPartitionedCall/model/tf.linalg.matmul/MatMul", "op": "BatchMatMulV2", "input": ["StatefulPartitionedCall/model/tf.compat.v1.transpose/transpose", "StatefulPartitionedCall/model/tf.compat.v1.transpose_1/transpose"], "attr": {"adj_x": {"b": false}, "T": {"type": "DT_FLOAT"}, "adj_y": {"b": false}}}, {"name": "StatefulPartitionedCall/model/tf.reshape_2/Reshape", "op": "Reshape", "input": ["StatefulPartitionedCall/model/tf.linalg.matmul/MatMul", "unknown_32"], "attr": {"T": {"type": "DT_FLOAT"}, "Tshape": {"type": "DT_INT64"}}}, {"name": "StatefulPartitionedCall/model/tf.nn.softmax/Softmax", "op": "Softmax", "input": ["StatefulPartitionedCall/model/tf.reshape_2/Reshape"], "attr": {"T": {"type": "DT_FLOAT"}}}, {"name": "StatefulPartitionedCall/model/tf.reshape_3/Reshape", "op": "Reshape", "input": ["StatefulPartitionedCall/model/tf.nn.softmax/Softmax", "unknown_33"], "attr": {"Tshape": {"type": "DT_INT64"}, "T": {"type": "DT_FLOAT"}}}, {"name": "StatefulPartitionedCall/model/tf.linalg.matmul_1/MatMul", "op": "BatchMatMulV2", "input": ["StatefulPartitionedCall/model/tf.reshape_3/Reshape", "StatefulPartitionedCall/model/tf.compat.v1.transpose_2/transpose"], "attr": {"T": {"type": "DT_FLOAT"}, "adj_y": {"b": false}, "adj_x": {"b": false}}}, {"name": "StatefulPartitionedCall/model/tf.compat.v1.transpose_3/transpose", "op": "Transpose", "input": ["StatefulPartitionedCall/model/tf.linalg.matmul_1/MatMul", "StatefulPartitionedCall/model/tf.compat.v1.transpose_3/transpose/perm"], "attr": {"Tperm": {"type": "DT_INT32"}, "T": {"type": "DT_FLOAT"}}}, {"name": "StatefulPartitionedCall/model/tf.reshape_5/Reshape", "op": "Reshape", "input": ["StatefulPartitionedCall/model/tf.compat.v1.transpose_3/transpose", "StatefulPartitionedCall/model/tf.reshape_5/Reshape/shape"], "attr": {"T": {"type": "DT_FLOAT"}, "Tshape": {"type": "DT_INT32"}}}, {"name": "StatefulPartitionedCall/model/tf.nn.relu6/Relu6", "op": "Relu6", "input": ["StatefulPartitionedCall/model/tf.reshape_5/Reshape"], "attr": {"T": {"type": "DT_FLOAT"}}}, {"name": "StatefulPartitionedCall/model/conv2d_24/Conv2D", "op": "Conv2D", "input": ["StatefulPartitionedCall/model/tf.nn.relu6/Relu6", "StatefulPartitionedCall/model/conv2d_24/Conv2D/ReadVariableOp"], "device": "/device:CPU:0", "attr": {"padding": {"s": "VkFMSUQ="}, "explicit_paddings": {"list": {}}, "T": {"type": "DT_FLOAT"}, "use_cudnn_on_gpu": {"b": true}, "dilations": {"list": {"i": ["1", "1", "1", "1"]}}, "data_format": {"s": "TkhXQw=="}, "strides": {"list": {"i": ["1", "1", "1", "1"]}}}}, {"name": "StatefulPartitionedCall/model/tf.math.add_40/Add", "op": "AddV2", "input": ["StatefulPartitionedCall/model/conv2d_24/Conv2D", "StatefulPartitionedCall/model/tf.math.add_40/Add/y"], "attr": {"T": {"type": "DT_FLOAT"}}}, {"name": "StatefulPartitionedCall/model/tf.math.add_41/Add", "op": "AddV2", "input": ["StatefulPartitionedCall/model/tf.concat/concat", "StatefulPartitionedCall/model/tf.math.add_40/Add"], "attr": {"T": {"type": "DT_FLOAT"}}}, {"name": "StatefulPartitionedCall/model/conv2d_25/Conv2D", "op": "Conv2D", "input": ["StatefulPartitionedCall/model/tf.math.add_41/Add", "StatefulPartitionedCall/model/conv2d_25/Conv2D/ReadVariableOp"], "device": "/device:CPU:0", "attr": {"use_cudnn_on_gpu": {"b": true}, "strides": {"list": {"i": ["1", "1", "1", "1"]}}, "T": {"type": "DT_FLOAT"}, "padding": {"s": "VkFMSUQ="}, "data_format": {"s": "TkhXQw=="}, "explicit_paddings": {"list": {}}, "dilations": {"list": {"i": ["1", "1", "1", "1"]}}}}, {"name": "StatefulPartitionedCall/model/tf.math.add_42/Add", "op": "AddV2", "input": ["StatefulPartitionedCall/model/conv2d_25/Conv2D", "StatefulPartitionedCall/model/tf.math.add_42/Add/y"], "attr": {"T": {"type": "DT_FLOAT"}}}, {"name": "StatefulPartitionedCall/model/zero_padding2d_11/Pad", "op": "Pad", "input": ["StatefulPartitionedCall/model/tf.math.add_42/Add", "StatefulPartitionedCall/model/zero_padding2d_11/Pad/paddings"], "attr": {"Tpaddings": {"type": "DT_INT32"}, "T": {"type": "DT_FLOAT"}}}, {"name": "StatefulPartitionedCall/model/depthwise_conv2d_10/depthwise", "op": "DepthwiseConv2dNative", "input": ["StatefulPartitionedCall/model/zero_padding2d_11/Pad", "StatefulPartitionedCall/model/depthwise_conv2d_10/depthwise/ReadVariableOp"], "attr": {"data_format": {"s": "TkhXQw=="}, "dilations": {"list": {"i": ["1", "1", "1", "1"]}}, "T": {"type": "DT_FLOAT"}, "explicit_paddings": {"list": {}}, "strides": {"list": {"i": ["1", "1", "1", "1"]}}, "padding": {"s": "VkFMSUQ="}}}, {"name": "StatefulPartitionedCall/model/tf.math.add_43/Add", "op": "AddV2", "input": ["StatefulPartitionedCall/model/depthwise_conv2d_10/depthwise", "StatefulPartitionedCall/model/tf.math.add_43/Add/y"], "attr": {"T": {"type": "DT_FLOAT"}}}, {"name": "StatefulPartitionedCall/model/tf.nn.relu6_1/Relu6", "op": "Relu6", "input": ["StatefulPartitionedCall/model/tf.math.add_43/Add"], "attr": {"T": {"type": "DT_FLOAT"}}}, {"name": "StatefulPartitionedCall/model/conv2d_26/Conv2D", "op": "Conv2D", "input": ["StatefulPartitionedCall/model/tf.nn.relu6_1/Relu6", "StatefulPartitionedCall/model/conv2d_26/Conv2D/ReadVariableOp"], "device": "/device:CPU:0", "attr": {"explicit_paddings": {"list": {}}, "dilations": {"list": {"i": ["1", "1", "1", "1"]}}, "strides": {"list": {"i": ["1", "1", "1", "1"]}}, "T": {"type": "DT_FLOAT"}, "use_cudnn_on_gpu": {"b": true}, "data_format": {"s": "TkhXQw=="}, "padding": {"s": "VkFMSUQ="}}}, {"name": "StatefulPartitionedCall/model/tf.math.add_45/ArithmeticOptimizer/AddOpsRewrite_Leaf_1_Add", "op": "AddN", "input": ["StatefulPartitionedCall/model/tf.math.add_41/Add", "StatefulPartitionedCall/model/conv2d_26/Conv2D"], "attr": {"N": {"i": "2"}, "T": {"type": "DT_FLOAT"}, "_grappler_ArithmeticOptimizer_AddOpsRewriteStage": {"b": true}}}, {"name": "StatefulPartitionedCall/model/tf.math.add_45/ArithmeticOptimizer/AddOpsRewrite_Add", "op": "AddV2", "input": ["StatefulPartitionedCall/model/tf.math.add_44/Add/y", "StatefulPartitionedCall/model/tf.math.add_45/ArithmeticOptimizer/AddOpsRewrite_Leaf_1_Add"], "attr": {"T": {"type": "DT_FLOAT"}, "_grappler_ArithmeticOptimizer_AddOpsRewriteStage": {"b": true}}}, {"name": "StatefulPartitionedCall/model/conv2d_27/Conv2D", "op": "Conv2D", "input": ["StatefulPartitionedCall/model/tf.math.add_45/ArithmeticOptimizer/AddOpsRewrite_Add", "StatefulPartitionedCall/model/conv2d_27/Conv2D/ReadVariableOp"], "device": "/device:CPU:0", "attr": {"padding": {"s": "VkFMSUQ="}, "strides": {"list": {"i": ["1", "1", "1", "1"]}}, "data_format": {"s": "TkhXQw=="}, "dilations": {"list": {"i": ["1", "1", "1", "1"]}}, "explicit_paddings": {"list": {}}, "T": {"type": "DT_FLOAT"}, "use_cudnn_on_gpu": {"b": true}}}, {"name": "StatefulPartitionedCall/model/conv2d_28/Conv2D", "op": "Conv2D", "input": ["StatefulPartitionedCall/model/tf.math.add_45/ArithmeticOptimizer/AddOpsRewrite_Add", "StatefulPartitionedCall/model/conv2d_28/Conv2D/ReadVariableOp"], "device": "/device:CPU:0", "attr": {"explicit_paddings": {"list": {}}, "data_format": {"s": "TkhXQw=="}, "dilations": {"list": {"i": ["1", "1", "1", "1"]}}, "use_cudnn_on_gpu": {"b": true}, "strides": {"list": {"i": ["1", "1", "1", "1"]}}, "T": {"type": "DT_FLOAT"}, "padding": {"s": "VkFMSUQ="}}}, {"name": "StatefulPartitionedCall/model/conv2d_29/Conv2D", "op": "Conv2D", "input": ["StatefulPartitionedCall/model/tf.math.add_45/ArithmeticOptimizer/AddOpsRewrite_Add", "StatefulPartitionedCall/model/conv2d_29/Conv2D/ReadVariableOp"], "device": "/device:CPU:0", "attr": {"explicit_paddings": {"list": {}}, "padding": {"s": "VkFMSUQ="}, "strides": {"list": {"i": ["1", "1", "1", "1"]}}, "use_cudnn_on_gpu": {"b": true}, "T": {"type": "DT_FLOAT"}, "data_format": {"s": "TkhXQw=="}, "dilations": {"list": {"i": ["1", "1", "1", "1"]}}}}, {"name": "StatefulPartitionedCall/model/tf.math.add_46/Add", "op": "AddV2", "input": ["StatefulPartitionedCall/model/conv2d_27/Conv2D", "StatefulPartitionedCall/model/tf.math.add_46/Add/y"], "attr": {"T": {"type": "DT_FLOAT"}}}, {"name": "StatefulPartitionedCall/model/tf.math.add_47/Add", "op": "AddV2", "input": ["StatefulPartitionedCall/model/conv2d_28/Conv2D", "StatefulPartitionedCall/model/tf.math.add_47/Add/y"], "attr": {"T": {"type": "DT_FLOAT"}}}, {"name": "StatefulPartitionedCall/model/tf.math.add_48/Add", "op": "AddV2", "input": ["StatefulPartitionedCall/model/conv2d_29/Conv2D", "StatefulPartitionedCall/model/tf.math.add_48/Add/y"], "attr": {"T": {"type": "DT_FLOAT"}}}, {"name": "StatefulPartitionedCall/model/tf.reshape_6/Reshape", "op": "Reshape", "input": ["StatefulPartitionedCall/model/tf.math.add_46/Add", "StatefulPartitionedCall/model/tf.reshape_6/Reshape/shape"], "attr": {"T": {"type": "DT_FLOAT"}, "Tshape": {"type": "DT_INT32"}}}, {"name": "StatefulPartitionedCall/model/tf.reshape_7/Reshape", "op": "Reshape", "input": ["StatefulPartitionedCall/model/tf.math.add_47/Add", "StatefulPartitionedCall/model/tf.reshape_7/Reshape/shape"], "attr": {"Tshape": {"type": "DT_INT32"}, "T": {"type": "DT_FLOAT"}}}, {"name": "StatefulPartitionedCall/model/tf.reshape_10/Reshape", "op": "Reshape", "input": ["StatefulPartitionedCall/model/tf.math.add_48/Add", "StatefulPartitionedCall/model/tf.reshape_10/Reshape/shape"], "attr": {"Tshape": {"type": "DT_INT32"}, "T": {"type": "DT_FLOAT"}}}, {"name": "StatefulPartitionedCall/model/tf.compat.v1.transpose_4/transpose", "op": "Transpose", "input": ["StatefulPartitionedCall/model/tf.reshape_6/Reshape", "StatefulPartitionedCall/model/tf.compat.v1.transpose_4/transpose/perm"], "attr": {"Tperm": {"type": "DT_INT32"}, "T": {"type": "DT_FLOAT"}}}, {"name": "StatefulPartitionedCall/model/tf.compat.v1.transpose_5/transpose", "op": "Transpose", "input": ["StatefulPartitionedCall/model/tf.reshape_7/Reshape", "StatefulPartitionedCall/model/tf.compat.v1.transpose_5/transpose/perm"], "attr": {"Tperm": {"type": "DT_INT32"}, "T": {"type": "DT_FLOAT"}}}, {"name": "StatefulPartitionedCall/model/tf.compat.v1.transpose_6/transpose", "op": "Transpose", "input": ["StatefulPartitionedCall/model/tf.reshape_10/Reshape", "StatefulPartitionedCall/model/tf.compat.v1.transpose_6/transpose/perm"], "attr": {"T": {"type": "DT_FLOAT"}, "Tperm": {"type": "DT_INT32"}}}, {"name": "StatefulPartitionedCall/model/tf.linalg.matmul_2/MatMul", "op": "BatchMatMulV2", "input": ["StatefulPartitionedCall/model/tf.compat.v1.transpose_4/transpose", "StatefulPartitionedCall/model/tf.compat.v1.transpose_5/transpose"], "attr": {"T": {"type": "DT_FLOAT"}, "adj_x": {"b": false}, "adj_y": {"b": false}}}, {"name": "StatefulPartitionedCall/model/tf.reshape_8/Reshape", "op": "Reshape", "input": ["StatefulPartitionedCall/model/tf.linalg.matmul_2/MatMul", "unknown_41"], "attr": {"Tshape": {"type": "DT_INT64"}, "T": {"type": "DT_FLOAT"}}}, {"name": "StatefulPartitionedCall/model/tf.nn.softmax_1/Softmax", "op": "Softmax", "input": ["StatefulPartitionedCall/model/tf.reshape_8/Reshape"], "attr": {"T": {"type": "DT_FLOAT"}}}, {"name": "StatefulPartitionedCall/model/tf.reshape_9/Reshape", "op": "Reshape", "input": ["StatefulPartitionedCall/model/tf.nn.softmax_1/Softmax", "unknown_42"], "attr": {"Tshape": {"type": "DT_INT64"}, "T": {"type": "DT_FLOAT"}}}, {"name": "StatefulPartitionedCall/model/tf.linalg.matmul_3/MatMul", "op": "BatchMatMulV2", "input": ["StatefulPartitionedCall/model/tf.reshape_9/Reshape", "StatefulPartitionedCall/model/tf.compat.v1.transpose_6/transpose"], "attr": {"adj_x": {"b": false}, "T": {"type": "DT_FLOAT"}, "adj_y": {"b": false}}}, {"name": "StatefulPartitionedCall/model/tf.compat.v1.transpose_7/transpose", "op": "Transpose", "input": ["StatefulPartitionedCall/model/tf.linalg.matmul_3/MatMul", "StatefulPartitionedCall/model/tf.compat.v1.transpose_7/transpose/perm"], "attr": {"Tperm": {"type": "DT_INT32"}, "T": {"type": "DT_FLOAT"}}}, {"name": "StatefulPartitionedCall/model/tf.reshape_11/Reshape", "op": "Reshape", "input": ["StatefulPartitionedCall/model/tf.compat.v1.transpose_7/transpose", "StatefulPartitionedCall/model/tf.reshape_11/Reshape/shape"], "attr": {"T": {"type": "DT_FLOAT"}, "Tshape": {"type": "DT_INT32"}}}, {"name": "StatefulPartitionedCall/model/tf.nn.relu6_2/Relu6", "op": "Relu6", "input": ["StatefulPartitionedCall/model/tf.reshape_11/Reshape"], "attr": {"T": {"type": "DT_FLOAT"}}}, {"name": "StatefulPartitionedCall/model/conv2d_30/Conv2D", "op": "Conv2D", "input": ["StatefulPartitionedCall/model/tf.nn.relu6_2/Relu6", "StatefulPartitionedCall/model/conv2d_30/Conv2D/ReadVariableOp"], "device": "/device:CPU:0", "attr": {"dilations": {"list": {"i": ["1", "1", "1", "1"]}}, "strides": {"list": {"i": ["1", "1", "1", "1"]}}, "use_cudnn_on_gpu": {"b": true}, "explicit_paddings": {"list": {}}, "T": {"type": "DT_FLOAT"}, "data_format": {"s": "TkhXQw=="}, "padding": {"s": "VkFMSUQ="}}}, {"name": "StatefulPartitionedCall/model/tf.math.add_50/ArithmeticOptimizer/AddOpsRewrite_Leaf_1_Add", "op": "AddN", "input": ["StatefulPartitionedCall/model/tf.math.add_45/ArithmeticOptimizer/AddOpsRewrite_Add", "StatefulPartitionedCall/model/conv2d_30/Conv2D"], "attr": {"N": {"i": "2"}, "_grappler_ArithmeticOptimizer_AddOpsRewriteStage": {"b": true}, "T": {"type": "DT_FLOAT"}}}, {"name": "StatefulPartitionedCall/model/tf.math.add_50/ArithmeticOptimizer/AddOpsRewrite_Add", "op": "AddV2", "input": ["StatefulPartitionedCall/model/tf.math.add_49/Add/y", "StatefulPartitionedCall/model/tf.math.add_50/ArithmeticOptimizer/AddOpsRewrite_Leaf_1_Add"], "attr": {"_grappler_ArithmeticOptimizer_AddOpsRewriteStage": {"b": true}, "T": {"type": "DT_FLOAT"}}}, {"name": "StatefulPartitionedCall/model/conv2d_31/Conv2D", "op": "Conv2D", "input": ["StatefulPartitionedCall/model/tf.math.add_50/ArithmeticOptimizer/AddOpsRewrite_Add", "StatefulPartitionedCall/model/conv2d_31/Conv2D/ReadVariableOp"], "device": "/device:CPU:0", "attr": {"padding": {"s": "VkFMSUQ="}, "data_format": {"s": "TkhXQw=="}, "T": {"type": "DT_FLOAT"}, "explicit_paddings": {"list": {}}, "strides": {"list": {"i": ["1", "1", "1", "1"]}}, "use_cudnn_on_gpu": {"b": true}, "dilations": {"list": {"i": ["1", "1", "1", "1"]}}}}, {"name": "StatefulPartitionedCall/model/tf.math.add_51/Add", "op": "AddV2", "input": ["StatefulPartitionedCall/model/conv2d_31/Conv2D", "StatefulPartitionedCall/model/tf.math.add_51/Add/y"], "attr": {"T": {"type": "DT_FLOAT"}}}, {"name": "StatefulPartitionedCall/model/zero_padding2d_12/Pad", "op": "Pad", "input": ["StatefulPartitionedCall/model/tf.math.add_51/Add", "StatefulPartitionedCall/model/zero_padding2d_12/Pad/paddings"], "attr": {"Tpaddings": {"type": "DT_INT32"}, "T": {"type": "DT_FLOAT"}}}, {"name": "StatefulPartitionedCall/model/depthwise_conv2d_11/depthwise", "op": "DepthwiseConv2dNative", "input": ["StatefulPartitionedCall/model/zero_padding2d_12/Pad", "StatefulPartitionedCall/model/depthwise_conv2d_11/depthwise/ReadVariableOp"], "attr": {"padding": {"s": "VkFMSUQ="}, "T": {"type": "DT_FLOAT"}, "explicit_paddings": {"list": {}}, "dilations": {"list": {"i": ["1", "1", "1", "1"]}}, "data_format": {"s": "TkhXQw=="}, "strides": {"list": {"i": ["1", "1", "1", "1"]}}}}, {"name": "StatefulPartitionedCall/model/tf.math.add_52/Add", "op": "AddV2", "input": ["StatefulPartitionedCall/model/depthwise_conv2d_11/depthwise", "StatefulPartitionedCall/model/tf.math.add_52/Add/y"], "attr": {"T": {"type": "DT_FLOAT"}}}, {"name": "StatefulPartitionedCall/model/tf.nn.relu6_3/Relu6", "op": "Relu6", "input": ["StatefulPartitionedCall/model/tf.math.add_52/Add"], "attr": {"T": {"type": "DT_FLOAT"}}}, {"name": "StatefulPartitionedCall/model/conv2d_32/Conv2D", "op": "Conv2D", "input": ["StatefulPartitionedCall/model/tf.nn.relu6_3/Relu6", "StatefulPartitionedCall/model/conv2d_32/Conv2D/ReadVariableOp"], "device": "/device:CPU:0", "attr": {"data_format": {"s": "TkhXQw=="}, "use_cudnn_on_gpu": {"b": true}, "padding": {"s": "VkFMSUQ="}, "dilations": {"list": {"i": ["1", "1", "1", "1"]}}, "strides": {"list": {"i": ["1", "1", "1", "1"]}}, "explicit_paddings": {"list": {}}, "T": {"type": "DT_FLOAT"}}}, {"name": "StatefulPartitionedCall/model/tf.math.add_54/ArithmeticOptimizer/AddOpsRewrite_Leaf_1_Add", "op": "AddN", "input": ["StatefulPartitionedCall/model/tf.math.add_50/ArithmeticOptimizer/AddOpsRewrite_Add", "StatefulPartitionedCall/model/conv2d_32/Conv2D"], "attr": {"_grappler_ArithmeticOptimizer_AddOpsRewriteStage": {"b": true}, "T": {"type": "DT_FLOAT"}, "N": {"i": "2"}}}, {"name": "StatefulPartitionedCall/model/tf.math.add_54/ArithmeticOptimizer/AddOpsRewrite_Add", "op": "AddV2", "input": ["StatefulPartitionedCall/model/tf.math.add_53/Add/y", "StatefulPartitionedCall/model/tf.math.add_54/ArithmeticOptimizer/AddOpsRewrite_Leaf_1_Add"], "attr": {"_grappler_ArithmeticOptimizer_AddOpsRewriteStage": {"b": true}, "T": {"type": "DT_FLOAT"}}}, {"name": "StatefulPartitionedCall/model/conv2d_33/Conv2D", "op": "Conv2D", "input": ["StatefulPartitionedCall/model/tf.math.add_54/ArithmeticOptimizer/AddOpsRewrite_Add", "StatefulPartitionedCall/model/conv2d_33/Conv2D/ReadVariableOp"], "device": "/device:CPU:0", "attr": {"data_format": {"s": "TkhXQw=="}, "T": {"type": "DT_FLOAT"}, "dilations": {"list": {"i": ["1", "1", "1", "1"]}}, "use_cudnn_on_gpu": {"b": true}, "explicit_paddings": {"list": {}}, "padding": {"s": "VkFMSUQ="}, "strides": {"list": {"i": ["1", "1", "1", "1"]}}}}, {"name": "StatefulPartitionedCall/model/conv2d_34/Conv2D", "op": "Conv2D", "input": ["StatefulPartitionedCall/model/tf.math.add_54/ArithmeticOptimizer/AddOpsRewrite_Add", "StatefulPartitionedCall/model/conv2d_34/Conv2D/ReadVariableOp"], "device": "/device:CPU:0", "attr": {"use_cudnn_on_gpu": {"b": true}, "padding": {"s": "VkFMSUQ="}, "T": {"type": "DT_FLOAT"}, "strides": {"list": {"i": ["1", "1", "1", "1"]}}, "dilations": {"list": {"i": ["1", "1", "1", "1"]}}, "explicit_paddings": {"list": {}}, "data_format": {"s": "TkhXQw=="}}}, {"name": "StatefulPartitionedCall/model/conv2d_35/Conv2D", "op": "Conv2D", "input": ["StatefulPartitionedCall/model/tf.math.add_54/ArithmeticOptimizer/AddOpsRewrite_Add", "StatefulPartitionedCall/model/conv2d_35/Conv2D/ReadVariableOp"], "device": "/device:CPU:0", "attr": {"padding": {"s": "VkFMSUQ="}, "data_format": {"s": "TkhXQw=="}, "strides": {"list": {"i": ["1", "1", "1", "1"]}}, "use_cudnn_on_gpu": {"b": true}, "T": {"type": "DT_FLOAT"}, "dilations": {"list": {"i": ["1", "1", "1", "1"]}}, "explicit_paddings": {"list": {}}}}, {"name": "StatefulPartitionedCall/model/tf.math.add_55/Add", "op": "AddV2", "input": ["StatefulPartitionedCall/model/conv2d_33/Conv2D", "StatefulPartitionedCall/model/tf.math.add_55/Add/y"], "attr": {"T": {"type": "DT_FLOAT"}}}, {"name": "StatefulPartitionedCall/model/tf.math.add_56/Add", "op": "AddV2", "input": ["StatefulPartitionedCall/model/conv2d_34/Conv2D", "StatefulPartitionedCall/model/tf.math.add_56/Add/y"], "attr": {"T": {"type": "DT_FLOAT"}}}, {"name": "StatefulPartitionedCall/model/tf.math.add_57/Add", "op": "AddV2", "input": ["StatefulPartitionedCall/model/conv2d_35/Conv2D", "StatefulPartitionedCall/model/tf.math.add_57/Add/y"], "attr": {"T": {"type": "DT_FLOAT"}}}, {"name": "StatefulPartitionedCall/model/tf.reshape_12/Reshape", "op": "Reshape", "input": ["StatefulPartitionedCall/model/tf.math.add_55/Add", "StatefulPartitionedCall/model/tf.reshape_12/Reshape/shape"], "attr": {"Tshape": {"type": "DT_INT32"}, "T": {"type": "DT_FLOAT"}}}, {"name": "StatefulPartitionedCall/model/tf.reshape_13/Reshape", "op": "Reshape", "input": ["StatefulPartitionedCall/model/tf.math.add_56/Add", "StatefulPartitionedCall/model/tf.reshape_13/Reshape/shape"], "attr": {"T": {"type": "DT_FLOAT"}, "Tshape": {"type": "DT_INT32"}}}, {"name": "StatefulPartitionedCall/model/tf.reshape_16/Reshape", "op": "Reshape", "input": ["StatefulPartitionedCall/model/tf.math.add_57/Add", "StatefulPartitionedCall/model/tf.reshape_16/Reshape/shape"], "attr": {"Tshape": {"type": "DT_INT32"}, "T": {"type": "DT_FLOAT"}}}, {"name": "StatefulPartitionedCall/model/tf.compat.v1.transpose_8/transpose", "op": "Transpose", "input": ["StatefulPartitionedCall/model/tf.reshape_12/Reshape", "StatefulPartitionedCall/model/tf.compat.v1.transpose_8/transpose/perm"], "attr": {"T": {"type": "DT_FLOAT"}, "Tperm": {"type": "DT_INT32"}}}, {"name": "StatefulPartitionedCall/model/tf.compat.v1.transpose_9/transpose", "op": "Transpose", "input": ["StatefulPartitionedCall/model/tf.reshape_13/Reshape", "StatefulPartitionedCall/model/tf.compat.v1.transpose_9/transpose/perm"], "attr": {"T": {"type": "DT_FLOAT"}, "Tperm": {"type": "DT_INT32"}}}, {"name": "StatefulPartitionedCall/model/tf.compat.v1.transpose_10/transpose", "op": "Transpose", "input": ["StatefulPartitionedCall/model/tf.reshape_16/Reshape", "StatefulPartitionedCall/model/tf.compat.v1.transpose_10/transpose/perm"], "attr": {"T": {"type": "DT_FLOAT"}, "Tperm": {"type": "DT_INT32"}}}, {"name": "StatefulPartitionedCall/model/tf.linalg.matmul_4/MatMul", "op": "BatchMatMulV2", "input": ["StatefulPartitionedCall/model/tf.compat.v1.transpose_8/transpose", "StatefulPartitionedCall/model/tf.compat.v1.transpose_9/transpose"], "attr": {"T": {"type": "DT_FLOAT"}, "adj_y": {"b": false}, "adj_x": {"b": false}}}, {"name": "StatefulPartitionedCall/model/tf.reshape_14/Reshape", "op": "Reshape", "input": ["StatefulPartitionedCall/model/tf.linalg.matmul_4/MatMul", "unknown_50"], "attr": {"T": {"type": "DT_FLOAT"}, "Tshape": {"type": "DT_INT64"}}}, {"name": "StatefulPartitionedCall/model/tf.nn.softmax_2/Softmax", "op": "Softmax", "input": ["StatefulPartitionedCall/model/tf.reshape_14/Reshape"], "attr": {"T": {"type": "DT_FLOAT"}}}, {"name": "StatefulPartitionedCall/model/tf.reshape_15/Reshape", "op": "Reshape", "input": ["StatefulPartitionedCall/model/tf.nn.softmax_2/Softmax", "unknown_51"], "attr": {"T": {"type": "DT_FLOAT"}, "Tshape": {"type": "DT_INT64"}}}, {"name": "StatefulPartitionedCall/model/tf.linalg.matmul_5/MatMul", "op": "BatchMatMulV2", "input": ["StatefulPartitionedCall/model/tf.reshape_15/Reshape", "StatefulPartitionedCall/model/tf.compat.v1.transpose_10/transpose"], "attr": {"adj_x": {"b": false}, "T": {"type": "DT_FLOAT"}, "adj_y": {"b": false}}}, {"name": "StatefulPartitionedCall/model/tf.compat.v1.transpose_11/transpose", "op": "Transpose", "input": ["StatefulPartitionedCall/model/tf.linalg.matmul_5/MatMul", "StatefulPartitionedCall/model/tf.compat.v1.transpose_11/transpose/perm"], "attr": {"Tperm": {"type": "DT_INT32"}, "T": {"type": "DT_FLOAT"}}}, {"name": "StatefulPartitionedCall/model/tf.reshape_17/Reshape", "op": "Reshape", "input": ["StatefulPartitionedCall/model/tf.compat.v1.transpose_11/transpose", "StatefulPartitionedCall/model/tf.reshape_17/Reshape/shape"], "attr": {"T": {"type": "DT_FLOAT"}, "Tshape": {"type": "DT_INT32"}}}, {"name": "StatefulPartitionedCall/model/tf.nn.relu6_4/Relu6", "op": "Relu6", "input": ["StatefulPartitionedCall/model/tf.reshape_17/Reshape"], "attr": {"T": {"type": "DT_FLOAT"}}}, {"name": "StatefulPartitionedCall/model/conv2d_36/Conv2D", "op": "Conv2D", "input": ["StatefulPartitionedCall/model/tf.nn.relu6_4/Relu6", "StatefulPartitionedCall/model/conv2d_36/Conv2D/ReadVariableOp"], "device": "/device:CPU:0", "attr": {"dilations": {"list": {"i": ["1", "1", "1", "1"]}}, "explicit_paddings": {"list": {}}, "data_format": {"s": "TkhXQw=="}, "use_cudnn_on_gpu": {"b": true}, "padding": {"s": "VkFMSUQ="}, "strides": {"list": {"i": ["1", "1", "1", "1"]}}, "T": {"type": "DT_FLOAT"}}}, {"name": "StatefulPartitionedCall/model/tf.math.add_59/ArithmeticOptimizer/AddOpsRewrite_Leaf_1_Add", "op": "AddN", "input": ["StatefulPartitionedCall/model/tf.math.add_54/ArithmeticOptimizer/AddOpsRewrite_Add", "StatefulPartitionedCall/model/conv2d_36/Conv2D"], "attr": {"_grappler_ArithmeticOptimizer_AddOpsRewriteStage": {"b": true}, "N": {"i": "2"}, "T": {"type": "DT_FLOAT"}}}, {"name": "StatefulPartitionedCall/model/tf.math.add_59/ArithmeticOptimizer/AddOpsRewrite_Add", "op": "AddV2", "input": ["StatefulPartitionedCall/model/tf.math.add_58/Add/y", "StatefulPartitionedCall/model/tf.math.add_59/ArithmeticOptimizer/AddOpsRewrite_Leaf_1_Add"], "attr": {"T": {"type": "DT_FLOAT"}, "_grappler_ArithmeticOptimizer_AddOpsRewriteStage": {"b": true}}}, {"name": "StatefulPartitionedCall/model/conv2d_37/Conv2D", "op": "Conv2D", "input": ["StatefulPartitionedCall/model/tf.math.add_59/ArithmeticOptimizer/AddOpsRewrite_Add", "StatefulPartitionedCall/model/conv2d_37/Conv2D/ReadVariableOp"], "device": "/device:CPU:0", "attr": {"use_cudnn_on_gpu": {"b": true}, "explicit_paddings": {"list": {}}, "data_format": {"s": "TkhXQw=="}, "padding": {"s": "VkFMSUQ="}, "T": {"type": "DT_FLOAT"}, "dilations": {"list": {"i": ["1", "1", "1", "1"]}}, "strides": {"list": {"i": ["1", "1", "1", "1"]}}}}, {"name": "StatefulPartitionedCall/model/tf.math.add_60/Add", "op": "AddV2", "input": ["StatefulPartitionedCall/model/conv2d_37/Conv2D", "StatefulPartitionedCall/model/tf.math.add_60/Add/y"], "attr": {"T": {"type": "DT_FLOAT"}}}, {"name": "StatefulPartitionedCall/model/zero_padding2d_13/Pad", "op": "Pad", "input": ["StatefulPartitionedCall/model/tf.math.add_60/Add", "StatefulPartitionedCall/model/zero_padding2d_13/Pad/paddings"], "attr": {"Tpaddings": {"type": "DT_INT32"}, "T": {"type": "DT_FLOAT"}}}, {"name": "StatefulPartitionedCall/model/depthwise_conv2d_12/depthwise", "op": "DepthwiseConv2dNative", "input": ["StatefulPartitionedCall/model/zero_padding2d_13/Pad", "StatefulPartitionedCall/model/depthwise_conv2d_12/depthwise/ReadVariableOp"], "attr": {"data_format": {"s": "TkhXQw=="}, "explicit_paddings": {"list": {}}, "T": {"type": "DT_FLOAT"}, "strides": {"list": {"i": ["1", "1", "1", "1"]}}, "padding": {"s": "VkFMSUQ="}, "dilations": {"list": {"i": ["1", "1", "1", "1"]}}}}, {"name": "StatefulPartitionedCall/model/tf.math.add_61/Add", "op": "AddV2", "input": ["StatefulPartitionedCall/model/depthwise_conv2d_12/depthwise", "StatefulPartitionedCall/model/tf.math.add_61/Add/y"], "attr": {"T": {"type": "DT_FLOAT"}}}, {"name": "StatefulPartitionedCall/model/tf.nn.relu6_5/Relu6", "op": "Relu6", "input": ["StatefulPartitionedCall/model/tf.math.add_61/Add"], "attr": {"T": {"type": "DT_FLOAT"}}}, {"name": "StatefulPartitionedCall/model/conv2d_38/Conv2D", "op": "Conv2D", "input": ["StatefulPartitionedCall/model/tf.nn.relu6_5/Relu6", "StatefulPartitionedCall/model/conv2d_38/Conv2D/ReadVariableOp"], "device": "/device:CPU:0", "attr": {"explicit_paddings": {"list": {}}, "dilations": {"list": {"i": ["1", "1", "1", "1"]}}, "strides": {"list": {"i": ["1", "1", "1", "1"]}}, "use_cudnn_on_gpu": {"b": true}, "padding": {"s": "VkFMSUQ="}, "data_format": {"s": "TkhXQw=="}, "T": {"type": "DT_FLOAT"}}}, {"name": "StatefulPartitionedCall/model/tf.math.add_63/ArithmeticOptimizer/AddOpsRewrite_Leaf_1_Add", "op": "AddN", "input": ["StatefulPartitionedCall/model/tf.math.add_59/ArithmeticOptimizer/AddOpsRewrite_Add", "StatefulPartitionedCall/model/conv2d_38/Conv2D"], "attr": {"T": {"type": "DT_FLOAT"}, "_grappler_ArithmeticOptimizer_AddOpsRewriteStage": {"b": true}, "N": {"i": "2"}}}, {"name": "StatefulPartitionedCall/model/tf.math.add_63/ArithmeticOptimizer/AddOpsRewrite_Add", "op": "AddV2", "input": ["StatefulPartitionedCall/model/tf.math.add_62/Add/y", "StatefulPartitionedCall/model/tf.math.add_63/ArithmeticOptimizer/AddOpsRewrite_Leaf_1_Add"], "attr": {"_grappler_ArithmeticOptimizer_AddOpsRewriteStage": {"b": true}, "T": {"type": "DT_FLOAT"}}}, {"name": "StatefulPartitionedCall/model/conv2d_39/Conv2D", "op": "Conv2D", "input": ["StatefulPartitionedCall/model/tf.math.add_63/ArithmeticOptimizer/AddOpsRewrite_Add", "StatefulPartitionedCall/model/conv2d_39/Conv2D/ReadVariableOp"], "device": "/device:CPU:0", "attr": {"data_format": {"s": "TkhXQw=="}, "explicit_paddings": {"list": {}}, "use_cudnn_on_gpu": {"b": true}, "strides": {"list": {"i": ["1", "1", "1", "1"]}}, "dilations": {"list": {"i": ["1", "1", "1", "1"]}}, "T": {"type": "DT_FLOAT"}, "padding": {"s": "VkFMSUQ="}}}, {"name": "StatefulPartitionedCall/model/conv2d_40/Conv2D", "op": "Conv2D", "input": ["StatefulPartitionedCall/model/tf.math.add_63/ArithmeticOptimizer/AddOpsRewrite_Add", "StatefulPartitionedCall/model/conv2d_40/Conv2D/ReadVariableOp"], "device": "/device:CPU:0", "attr": {"explicit_paddings": {"list": {}}, "T": {"type": "DT_FLOAT"}, "dilations": {"list": {"i": ["1", "1", "1", "1"]}}, "data_format": {"s": "TkhXQw=="}, "use_cudnn_on_gpu": {"b": true}, "padding": {"s": "VkFMSUQ="}, "strides": {"list": {"i": ["1", "1", "1", "1"]}}}}, {"name": "StatefulPartitionedCall/model/conv2d_41/Conv2D", "op": "Conv2D", "input": ["StatefulPartitionedCall/model/tf.math.add_63/ArithmeticOptimizer/AddOpsRewrite_Add", "StatefulPartitionedCall/model/conv2d_41/Conv2D/ReadVariableOp"], "device": "/device:CPU:0", "attr": {"data_format": {"s": "TkhXQw=="}, "T": {"type": "DT_FLOAT"}, "padding": {"s": "VkFMSUQ="}, "strides": {"list": {"i": ["1", "1", "1", "1"]}}, "use_cudnn_on_gpu": {"b": true}, "dilations": {"list": {"i": ["1", "1", "1", "1"]}}, "explicit_paddings": {"list": {}}}}, {"name": "StatefulPartitionedCall/model/tf.math.add_64/Add", "op": "AddV2", "input": ["StatefulPartitionedCall/model/conv2d_39/Conv2D", "StatefulPartitionedCall/model/tf.math.add_64/Add/y"], "attr": {"T": {"type": "DT_FLOAT"}}}, {"name": "StatefulPartitionedCall/model/tf.math.add_65/Add", "op": "AddV2", "input": ["StatefulPartitionedCall/model/conv2d_40/Conv2D", "StatefulPartitionedCall/model/tf.math.add_65/Add/y"], "attr": {"T": {"type": "DT_FLOAT"}}}, {"name": "StatefulPartitionedCall/model/tf.math.add_66/Add", "op": "AddV2", "input": ["StatefulPartitionedCall/model/conv2d_41/Conv2D", "StatefulPartitionedCall/model/tf.math.add_66/Add/y"], "attr": {"T": {"type": "DT_FLOAT"}}}, {"name": "StatefulPartitionedCall/model/tf.reshape_18/Reshape", "op": "Reshape", "input": ["StatefulPartitionedCall/model/tf.math.add_64/Add", "StatefulPartitionedCall/model/tf.reshape_18/Reshape/shape"], "attr": {"Tshape": {"type": "DT_INT32"}, "T": {"type": "DT_FLOAT"}}}, {"name": "StatefulPartitionedCall/model/tf.reshape_19/Reshape", "op": "Reshape", "input": ["StatefulPartitionedCall/model/tf.math.add_65/Add", "StatefulPartitionedCall/model/tf.reshape_19/Reshape/shape"], "attr": {"T": {"type": "DT_FLOAT"}, "Tshape": {"type": "DT_INT32"}}}, {"name": "StatefulPartitionedCall/model/tf.reshape_22/Reshape", "op": "Reshape", "input": ["StatefulPartitionedCall/model/tf.math.add_66/Add", "StatefulPartitionedCall/model/tf.reshape_22/Reshape/shape"], "attr": {"Tshape": {"type": "DT_INT32"}, "T": {"type": "DT_FLOAT"}}}, {"name": "StatefulPartitionedCall/model/tf.compat.v1.transpose_12/transpose", "op": "Transpose", "input": ["StatefulPartitionedCall/model/tf.reshape_18/Reshape", "StatefulPartitionedCall/model/tf.compat.v1.transpose_12/transpose/perm"], "attr": {"T": {"type": "DT_FLOAT"}, "Tperm": {"type": "DT_INT32"}}}, {"name": "StatefulPartitionedCall/model/tf.compat.v1.transpose_13/transpose", "op": "Transpose", "input": ["StatefulPartitionedCall/model/tf.reshape_19/Reshape", "StatefulPartitionedCall/model/tf.compat.v1.transpose_13/transpose/perm"], "attr": {"T": {"type": "DT_FLOAT"}, "Tperm": {"type": "DT_INT32"}}}, {"name": "StatefulPartitionedCall/model/tf.compat.v1.transpose_14/transpose", "op": "Transpose", "input": ["StatefulPartitionedCall/model/tf.reshape_22/Reshape", "StatefulPartitionedCall/model/tf.compat.v1.transpose_14/transpose/perm"], "attr": {"Tperm": {"type": "DT_INT32"}, "T": {"type": "DT_FLOAT"}}}, {"name": "StatefulPartitionedCall/model/tf.linalg.matmul_6/MatMul", "op": "BatchMatMulV2", "input": ["StatefulPartitionedCall/model/tf.compat.v1.transpose_12/transpose", "StatefulPartitionedCall/model/tf.compat.v1.transpose_13/transpose"], "attr": {"T": {"type": "DT_FLOAT"}, "adj_x": {"b": false}, "adj_y": {"b": false}}}, {"name": "StatefulPartitionedCall/model/tf.reshape_20/Reshape", "op": "Reshape", "input": ["StatefulPartitionedCall/model/tf.linalg.matmul_6/MatMul", "unknown_59"], "attr": {"T": {"type": "DT_FLOAT"}, "Tshape": {"type": "DT_INT64"}}}, {"name": "StatefulPartitionedCall/model/tf.nn.softmax_3/Softmax", "op": "Softmax", "input": ["StatefulPartitionedCall/model/tf.reshape_20/Reshape"], "attr": {"T": {"type": "DT_FLOAT"}}}, {"name": "StatefulPartitionedCall/model/tf.reshape_21/Reshape", "op": "Reshape", "input": ["StatefulPartitionedCall/model/tf.nn.softmax_3/Softmax", "unknown_60"], "attr": {"Tshape": {"type": "DT_INT64"}, "T": {"type": "DT_FLOAT"}}}, {"name": "StatefulPartitionedCall/model/tf.linalg.matmul_7/MatMul", "op": "BatchMatMulV2", "input": ["StatefulPartitionedCall/model/tf.reshape_21/Reshape", "StatefulPartitionedCall/model/tf.compat.v1.transpose_14/transpose"], "attr": {"adj_y": {"b": false}, "adj_x": {"b": false}, "T": {"type": "DT_FLOAT"}}}, {"name": "StatefulPartitionedCall/model/tf.compat.v1.transpose_15/transpose", "op": "Transpose", "input": ["StatefulPartitionedCall/model/tf.linalg.matmul_7/MatMul", "StatefulPartitionedCall/model/tf.compat.v1.transpose_15/transpose/perm"], "attr": {"T": {"type": "DT_FLOAT"}, "Tperm": {"type": "DT_INT32"}}}, {"name": "StatefulPartitionedCall/model/tf.reshape_23/Reshape", "op": "Reshape", "input": ["StatefulPartitionedCall/model/tf.compat.v1.transpose_15/transpose", "StatefulPartitionedCall/model/tf.reshape_23/Reshape/shape"], "attr": {"T": {"type": "DT_FLOAT"}, "Tshape": {"type": "DT_INT32"}}}, {"name": "StatefulPartitionedCall/model/tf.nn.relu6_6/Relu6", "op": "Relu6", "input": ["StatefulPartitionedCall/model/tf.reshape_23/Reshape"], "attr": {"T": {"type": "DT_FLOAT"}}}, {"name": "StatefulPartitionedCall/model/conv2d_42/Conv2D", "op": "Conv2D", "input": ["StatefulPartitionedCall/model/tf.nn.relu6_6/Relu6", "StatefulPartitionedCall/model/conv2d_42/Conv2D/ReadVariableOp"], "device": "/device:CPU:0", "attr": {"data_format": {"s": "TkhXQw=="}, "explicit_paddings": {"list": {}}, "padding": {"s": "VkFMSUQ="}, "T": {"type": "DT_FLOAT"}, "dilations": {"list": {"i": ["1", "1", "1", "1"]}}, "use_cudnn_on_gpu": {"b": true}, "strides": {"list": {"i": ["1", "1", "1", "1"]}}}}, {"name": "StatefulPartitionedCall/model/tf.math.add_68/ArithmeticOptimizer/AddOpsRewrite_Leaf_1_Add", "op": "AddN", "input": ["StatefulPartitionedCall/model/tf.math.add_63/ArithmeticOptimizer/AddOpsRewrite_Add", "StatefulPartitionedCall/model/conv2d_42/Conv2D"], "attr": {"_grappler_ArithmeticOptimizer_AddOpsRewriteStage": {"b": true}, "N": {"i": "2"}, "T": {"type": "DT_FLOAT"}}}, {"name": "StatefulPartitionedCall/model/tf.math.add_68/ArithmeticOptimizer/AddOpsRewrite_Add", "op": "AddV2", "input": ["StatefulPartitionedCall/model/tf.math.add_67/Add/y", "StatefulPartitionedCall/model/tf.math.add_68/ArithmeticOptimizer/AddOpsRewrite_Leaf_1_Add"], "attr": {"T": {"type": "DT_FLOAT"}, "_grappler_ArithmeticOptimizer_AddOpsRewriteStage": {"b": true}}}, {"name": "StatefulPartitionedCall/model/conv2d_43/Conv2D", "op": "Conv2D", "input": ["StatefulPartitionedCall/model/tf.math.add_68/ArithmeticOptimizer/AddOpsRewrite_Add", "StatefulPartitionedCall/model/conv2d_43/Conv2D/ReadVariableOp"], "device": "/device:CPU:0", "attr": {"explicit_paddings": {"list": {}}, "strides": {"list": {"i": ["1", "1", "1", "1"]}}, "use_cudnn_on_gpu": {"b": true}, "data_format": {"s": "TkhXQw=="}, "T": {"type": "DT_FLOAT"}, "dilations": {"list": {"i": ["1", "1", "1", "1"]}}, "padding": {"s": "VkFMSUQ="}}}, {"name": "StatefulPartitionedCall/model/tf.math.add_69/Add", "op": "AddV2", "input": ["StatefulPartitionedCall/model/conv2d_43/Conv2D", "StatefulPartitionedCall/model/tf.math.add_69/Add/y"], "attr": {"T": {"type": "DT_FLOAT"}}}, {"name": "StatefulPartitionedCall/model/zero_padding2d_14/Pad", "op": "Pad", "input": ["StatefulPartitionedCall/model/tf.math.add_69/Add", "StatefulPartitionedCall/model/zero_padding2d_14/Pad/paddings"], "attr": {"T": {"type": "DT_FLOAT"}, "Tpaddings": {"type": "DT_INT32"}}}, {"name": "StatefulPartitionedCall/model/depthwise_conv2d_13/depthwise", "op": "DepthwiseConv2dNative", "input": ["StatefulPartitionedCall/model/zero_padding2d_14/Pad", "StatefulPartitionedCall/model/depthwise_conv2d_13/depthwise/ReadVariableOp"], "attr": {"strides": {"list": {"i": ["1", "1", "1", "1"]}}, "padding": {"s": "VkFMSUQ="}, "T": {"type": "DT_FLOAT"}, "data_format": {"s": "TkhXQw=="}, "explicit_paddings": {"list": {}}, "dilations": {"list": {"i": ["1", "1", "1", "1"]}}}}, {"name": "StatefulPartitionedCall/model/tf.math.add_70/Add", "op": "AddV2", "input": ["StatefulPartitionedCall/model/depthwise_conv2d_13/depthwise", "StatefulPartitionedCall/model/tf.math.add_70/Add/y"], "attr": {"T": {"type": "DT_FLOAT"}}}, {"name": "StatefulPartitionedCall/model/tf.nn.relu6_7/Relu6", "op": "Relu6", "input": ["StatefulPartitionedCall/model/tf.math.add_70/Add"], "attr": {"T": {"type": "DT_FLOAT"}}}, {"name": "StatefulPartitionedCall/model/conv2d_44/Conv2D", "op": "Conv2D", "input": ["StatefulPartitionedCall/model/tf.nn.relu6_7/Relu6", "StatefulPartitionedCall/model/conv2d_44/Conv2D/ReadVariableOp"], "device": "/device:CPU:0", "attr": {"dilations": {"list": {"i": ["1", "1", "1", "1"]}}, "explicit_paddings": {"list": {}}, "use_cudnn_on_gpu": {"b": true}, "data_format": {"s": "TkhXQw=="}, "strides": {"list": {"i": ["1", "1", "1", "1"]}}, "padding": {"s": "VkFMSUQ="}, "T": {"type": "DT_FLOAT"}}}, {"name": "StatefulPartitionedCall/model/tf.math.add_72/ArithmeticOptimizer/AddOpsRewrite_Leaf_1_Add", "op": "AddN", "input": ["StatefulPartitionedCall/model/tf.math.add_68/ArithmeticOptimizer/AddOpsRewrite_Add", "StatefulPartitionedCall/model/conv2d_44/Conv2D"], "attr": {"_grappler_ArithmeticOptimizer_AddOpsRewriteStage": {"b": true}, "T": {"type": "DT_FLOAT"}, "N": {"i": "2"}}}, {"name": "StatefulPartitionedCall/model/tf.math.add_72/ArithmeticOptimizer/AddOpsRewrite_Add", "op": "AddV2", "input": ["StatefulPartitionedCall/model/tf.math.add_71/Add/y", "StatefulPartitionedCall/model/tf.math.add_72/ArithmeticOptimizer/AddOpsRewrite_Leaf_1_Add"], "attr": {"T": {"type": "DT_FLOAT"}, "_grappler_ArithmeticOptimizer_AddOpsRewriteStage": {"b": true}}}, {"name": "StatefulPartitionedCall/model/tf.slice_1/Slice", "op": "Slice", "input": ["StatefulPartitionedCall/model/tf.math.add_72/ArithmeticOptimizer/AddOpsRewrite_Add", "StatefulPartitionedCall/model/tf.slice_1/Slice/begin", "StatefulPartitionedCall/model/tf.slice_1/Slice/size"], "attr": {"T": {"type": "DT_FLOAT"}, "Index": {"type": "DT_INT32"}}}, {"name": "StatefulPartitionedCall/model/tf.slice_2/Slice", "op": "Slice", "input": ["StatefulPartitionedCall/model/tf.math.add_72/ArithmeticOptimizer/AddOpsRewrite_Add", "StatefulPartitionedCall/model/tf.slice_2/Slice/begin", "StatefulPartitionedCall/model/tf.slice_2/Slice/size"], "attr": {"Index": {"type": "DT_INT32"}, "T": {"type": "DT_FLOAT"}}}, {"name": "StatefulPartitionedCall/model/tf.slice_3/Slice", "op": "Slice", "input": ["StatefulPartitionedCall/model/tf.math.add_72/ArithmeticOptimizer/AddOpsRewrite_Add", "StatefulPartitionedCall/model/tf.slice_3/Slice/begin", "StatefulPartitionedCall/model/tf.slice_3/Slice/size"], "attr": {"Index": {"type": "DT_INT32"}, "T": {"type": "DT_FLOAT"}}}, {"name": "StatefulPartitionedCall/model/conv2d_45/Conv2D", "op": "Conv2D", "input": ["StatefulPartitionedCall/model/tf.slice_1/Slice", "StatefulPartitionedCall/model/conv2d_45/Conv2D/ReadVariableOp"], "device": "/device:CPU:0", "attr": {"padding": {"s": "VkFMSUQ="}, "data_format": {"s": "TkhXQw=="}, "use_cudnn_on_gpu": {"b": true}, "strides": {"list": {"i": ["1", "1", "1", "1"]}}, "dilations": {"list": {"i": ["1", "1", "1", "1"]}}, "T": {"type": "DT_FLOAT"}, "explicit_paddings": {"list": {}}}}, {"name": "StatefulPartitionedCall/model/conv2d_46/Conv2D", "op": "Conv2D", "input": ["StatefulPartitionedCall/model/tf.slice_1/Slice", "StatefulPartitionedCall/model/conv2d_46/Conv2D/ReadVariableOp"], "device": "/device:CPU:0", "attr": {"use_cudnn_on_gpu": {"b": true}, "T": {"type": "DT_FLOAT"}, "padding": {"s": "VkFMSUQ="}, "strides": {"list": {"i": ["1", "1", "1", "1"]}}, "data_format": {"s": "TkhXQw=="}, "explicit_paddings": {"list": {}}, "dilations": {"list": {"i": ["1", "1", "1", "1"]}}}}, {"name": "StatefulPartitionedCall/model/conv2d_48/Conv2D", "op": "Conv2D", "input": ["StatefulPartitionedCall/model/tf.slice_2/Slice", "StatefulPartitionedCall/model/conv2d_48/Conv2D/ReadVariableOp"], "device": "/device:CPU:0", "attr": {"data_format": {"s": "TkhXQw=="}, "use_cudnn_on_gpu": {"b": true}, "strides": {"list": {"i": ["1", "1", "1", "1"]}}, "dilations": {"list": {"i": ["1", "1", "1", "1"]}}, "padding": {"s": "VkFMSUQ="}, "explicit_paddings": {"list": {}}, "T": {"type": "DT_FLOAT"}}}, {"name": "StatefulPartitionedCall/model/conv2d_49/Conv2D", "op": "Conv2D", "input": ["StatefulPartitionedCall/model/tf.slice_2/Slice", "StatefulPartitionedCall/model/conv2d_49/Conv2D/ReadVariableOp"], "device": "/device:CPU:0", "attr": {"data_format": {"s": "TkhXQw=="}, "padding": {"s": "VkFMSUQ="}, "explicit_paddings": {"list": {}}, "strides": {"list": {"i": ["1", "1", "1", "1"]}}, "use_cudnn_on_gpu": {"b": true}, "dilations": {"list": {"i": ["1", "1", "1", "1"]}}, "T": {"type": "DT_FLOAT"}}}, {"name": "StatefulPartitionedCall/model/conv2d_51/Conv2D", "op": "Conv2D", "input": ["StatefulPartitionedCall/model/tf.slice_3/Slice", "StatefulPartitionedCall/model/conv2d_51/Conv2D/ReadVariableOp"], "device": "/device:CPU:0", "attr": {"dilations": {"list": {"i": ["1", "1", "1", "1"]}}, "explicit_paddings": {"list": {}}, "padding": {"s": "VkFMSUQ="}, "strides": {"list": {"i": ["1", "1", "1", "1"]}}, "use_cudnn_on_gpu": {"b": true}, "data_format": {"s": "TkhXQw=="}, "T": {"type": "DT_FLOAT"}}}, {"name": "StatefulPartitionedCall/model/conv2d_52/Conv2D", "op": "Conv2D", "input": ["StatefulPartitionedCall/model/tf.slice_3/Slice", "StatefulPartitionedCall/model/conv2d_52/Conv2D/ReadVariableOp"], "device": "/device:CPU:0", "attr": {"explicit_paddings": {"list": {}}, "strides": {"list": {"i": ["1", "1", "1", "1"]}}, "dilations": {"list": {"i": ["1", "1", "1", "1"]}}, "padding": {"s": "VkFMSUQ="}, "data_format": {"s": "TkhXQw=="}, "use_cudnn_on_gpu": {"b": true}, "T": {"type": "DT_FLOAT"}}}, {"name": "StatefulPartitionedCall/model/tf.math.add_73/Add", "op": "AddV2", "input": ["StatefulPartitionedCall/model/conv2d_45/Conv2D", "StatefulPartitionedCall/model/tf.math.add_73/Add/y"], "attr": {"T": {"type": "DT_FLOAT"}}}, {"name": "StatefulPartitionedCall/model/tf.math.add_74/Add", "op": "AddV2", "input": ["StatefulPartitionedCall/model/conv2d_46/Conv2D", "StatefulPartitionedCall/model/tf.math.add_74/Add/y"], "attr": {"T": {"type": "DT_FLOAT"}}}, {"name": "StatefulPartitionedCall/model/tf.math.add_77/Add", "op": "AddV2", "input": ["StatefulPartitionedCall/model/conv2d_48/Conv2D", "StatefulPartitionedCall/model/tf.math.add_77/Add/y"], "attr": {"T": {"type": "DT_FLOAT"}}}, {"name": "StatefulPartitionedCall/model/tf.math.add_78/Add", "op": "AddV2", "input": ["StatefulPartitionedCall/model/conv2d_49/Conv2D", "StatefulPartitionedCall/model/tf.math.add_78/Add/y"], "attr": {"T": {"type": "DT_FLOAT"}}}, {"name": "StatefulPartitionedCall/model/tf.math.add_82/Add", "op": "AddV2", "input": ["StatefulPartitionedCall/model/conv2d_51/Conv2D", "StatefulPartitionedCall/model/tf.math.add_82/Add/y"], "attr": {"T": {"type": "DT_FLOAT"}}}, {"name": "StatefulPartitionedCall/model/tf.math.add_83/Add", "op": "AddV2", "input": ["StatefulPartitionedCall/model/conv2d_52/Conv2D", "StatefulPartitionedCall/model/tf.math.add_83/Add/y"], "attr": {"T": {"type": "DT_FLOAT"}}}, {"name": "StatefulPartitionedCall/model/tf.nn.relu6_8/Relu6", "op": "Relu6", "input": ["StatefulPartitionedCall/model/tf.math.add_73/Add"], "attr": {"T": {"type": "DT_FLOAT"}}}, {"name": "StatefulPartitionedCall/model/lambda_1/ResizeBilinear", "op": "ResizeBilinear", "input": ["StatefulPartitionedCall/model/tf.math.add_74/Add", "StatefulPartitionedCall/model/lambda_1/ResizeBilinear/size"], "attr": {"align_corners": {"b": true}, "half_pixel_centers": {"b": false}, "T": {"type": "DT_FLOAT"}}}, {"name": "StatefulPartitionedCall/model/tf.nn.relu6_9/Relu6", "op": "Relu6", "input": ["StatefulPartitionedCall/model/tf.math.add_77/Add"], "attr": {"T": {"type": "DT_FLOAT"}}}, {"name": "StatefulPartitionedCall/model/lambda_3/ResizeBilinear", "op": "ResizeBilinear", "input": ["StatefulPartitionedCall/model/tf.math.add_78/Add", "StatefulPartitionedCall/model/lambda_3/ResizeBilinear/size"], "attr": {"half_pixel_centers": {"b": false}, "align_corners": {"b": true}, "T": {"type": "DT_FLOAT"}}}, {"name": "StatefulPartitionedCall/model/tf.nn.relu6_10/Relu6", "op": "Relu6", "input": ["StatefulPartitionedCall/model/tf.math.add_82/Add"], "attr": {"T": {"type": "DT_FLOAT"}}}, {"name": "StatefulPartitionedCall/model/lambda_6/ResizeBilinear", "op": "ResizeBilinear", "input": ["StatefulPartitionedCall/model/tf.math.add_83/Add", "StatefulPartitionedCall/model/lambda_6/ResizeBilinear/size"], "attr": {"T": {"type": "DT_FLOAT"}, "half_pixel_centers": {"b": false}, "align_corners": {"b": true}}}, {"name": "StatefulPartitionedCall/model/tf.math.multiply/Mul", "op": "Mul", "input": ["StatefulPartitionedCall/model/tf.nn.relu6_8/Relu6", "StatefulPartitionedCall/model/tf.math.multiply/Mul/y"], "attr": {"T": {"type": "DT_FLOAT"}}}, {"name": "StatefulPartitionedCall/model/tf.math.multiply_2/Mul", "op": "Mul", "input": ["StatefulPartitionedCall/model/tf.nn.relu6_9/Relu6", "StatefulPartitionedCall/model/tf.math.multiply_2/Mul/y"], "attr": {"T": {"type": "DT_FLOAT"}}}, {"name": "StatefulPartitionedCall/model/tf.math.multiply_4/Mul", "op": "Mul", "input": ["StatefulPartitionedCall/model/tf.nn.relu6_10/Relu6", "StatefulPartitionedCall/model/tf.math.multiply_4/Mul/y"], "attr": {"T": {"type": "DT_FLOAT"}}}, {"name": "StatefulPartitionedCall/model/lambda/ResizeBilinear", "op": "ResizeBilinear", "input": ["StatefulPartitionedCall/model/tf.math.multiply/Mul", "StatefulPartitionedCall/model/lambda/ResizeBilinear/size"], "attr": {"half_pixel_centers": {"b": false}, "align_corners": {"b": true}, "T": {"type": "DT_FLOAT"}}}, {"name": "StatefulPartitionedCall/model/lambda_2/ResizeBilinear", "op": "ResizeBilinear", "input": ["StatefulPartitionedCall/model/tf.math.multiply_2/Mul", "StatefulPartitionedCall/model/lambda_2/ResizeBilinear/size"], "attr": {"half_pixel_centers": {"b": false}, "T": {"type": "DT_FLOAT"}, "align_corners": {"b": true}}}, {"name": "StatefulPartitionedCall/model/lambda_5/ResizeBilinear", "op": "ResizeBilinear", "input": ["StatefulPartitionedCall/model/tf.math.multiply_4/Mul", "StatefulPartitionedCall/model/lambda_5/ResizeBilinear/size"], "attr": {"T": {"type": "DT_FLOAT"}, "half_pixel_centers": {"b": false}, "align_corners": {"b": true}}}, {"name": "StatefulPartitionedCall/model/tf.math.multiply_1/Mul", "op": "Mul", "input": ["StatefulPartitionedCall/model/tf.math.add_18/Add", "StatefulPartitionedCall/model/lambda/ResizeBilinear"], "attr": {"T": {"type": "DT_FLOAT"}}}, {"name": "StatefulPartitionedCall/model/tf.math.multiply_3/Mul", "op": "Mul", "input": ["StatefulPartitionedCall/model/tf.math.add_76/Add", "StatefulPartitionedCall/model/lambda_2/ResizeBilinear"], "attr": {"T": {"type": "DT_FLOAT"}}}, {"name": "StatefulPartitionedCall/model/tf.math.multiply_5/Mul", "op": "Mul", "input": ["StatefulPartitionedCall/model/tf.math.add_81/Add", "StatefulPartitionedCall/model/lambda_5/ResizeBilinear"], "attr": {"T": {"type": "DT_FLOAT"}}}, {"name": "StatefulPartitionedCall/model/tf.math.add_79/Add", "op": "AddV2", "input": ["StatefulPartitionedCall/model/tf.math.multiply_3/Mul", "StatefulPartitionedCall/model/lambda_3/ResizeBilinear"], "attr": {"T": {"type": "DT_FLOAT"}}}, {"name": "StatefulPartitionedCall/model/tf.math.add_84/Add", "op": "AddV2", "input": ["StatefulPartitionedCall/model/tf.math.multiply_5/Mul", "StatefulPartitionedCall/model/lambda_6/ResizeBilinear"], "attr": {"T": {"type": "DT_FLOAT"}}}, {"name": "StatefulPartitionedCall/model/lambda_4/ResizeBilinear", "op": "ResizeBilinear", "input": ["StatefulPartitionedCall/model/tf.math.add_79/Add", "StatefulPartitionedCall/model/lambda_4/ResizeBilinear/size"], "attr": {"align_corners": {"b": true}, "half_pixel_centers": {"b": false}, "T": {"type": "DT_FLOAT"}}}, {"name": "StatefulPartitionedCall/model/lambda_7/ResizeBilinear", "op": "ResizeBilinear", "input": ["StatefulPartitionedCall/model/tf.math.add_84/Add", "StatefulPartitionedCall/model/lambda_7/ResizeBilinear/size"], "attr": {"align_corners": {"b": true}, "T": {"type": "DT_FLOAT"}, "half_pixel_centers": {"b": false}}}, {"name": "StatefulPartitionedCall/model/tf.math.add_85/ArithmeticOptimizer/AddOpsRewrite_Add", "op": "AddN", "input": ["StatefulPartitionedCall/model/tf.math.multiply_1/Mul", "StatefulPartitionedCall/model/lambda_1/ResizeBilinear", "StatefulPartitionedCall/model/lambda_4/ResizeBilinear", "StatefulPartitionedCall/model/lambda_7/ResizeBilinear"], "attr": {"_grappler_ArithmeticOptimizer_AddOpsRewriteStage": {"b": true}, "N": {"i": "4"}, "T": {"type": "DT_FLOAT"}}}, {"name": "StatefulPartitionedCall/model/conv2d_53/Conv2D", "op": "Conv2D", "input": ["StatefulPartitionedCall/model/tf.math.add_85/ArithmeticOptimizer/AddOpsRewrite_Add", "StatefulPartitionedCall/model/conv2d_53/Conv2D/ReadVariableOp"], "device": "/device:CPU:0", "attr": {"padding": {"s": "VkFMSUQ="}, "use_cudnn_on_gpu": {"b": true}, "data_format": {"s": "TkhXQw=="}, "explicit_paddings": {"list": {}}, "T": {"type": "DT_FLOAT"}, "dilations": {"list": {"i": ["1", "1", "1", "1"]}}, "strides": {"list": {"i": ["1", "1", "1", "1"]}}}}, {"name": "StatefulPartitionedCall/model/tf.math.add_86/Add", "op": "AddV2", "input": ["StatefulPartitionedCall/model/conv2d_53/Conv2D", "StatefulPartitionedCall/model/tf.math.add_86/Add/y"], "attr": {"T": {"type": "DT_FLOAT"}}}, {"name": "StatefulPartitionedCall/model/tf.nn.relu_20/Relu", "op": "Relu", "input": ["StatefulPartitionedCall/model/tf.math.add_86/Add"], "attr": {"T": {"type": "DT_FLOAT"}}}, {"name": "StatefulPartitionedCall/model/conv2d_54/Conv2D", "op": "Conv2D", "input": ["StatefulPartitionedCall/model/tf.nn.relu_20/Relu", "StatefulPartitionedCall/model/conv2d_54/Conv2D/ReadVariableOp"], "device": "/device:CPU:0", "attr": {"explicit_paddings": {"list": {}}, "strides": {"list": {"i": ["1", "1", "1", "1"]}}, "dilations": {"list": {"i": ["1", "1", "1", "1"]}}, "use_cudnn_on_gpu": {"b": true}, "T": {"type": "DT_FLOAT"}, "padding": {"s": "VkFMSUQ="}, "data_format": {"s": "TkhXQw=="}}}, {"name": "StatefulPartitionedCall/model/tf.math.add_87/Add", "op": "AddV2", "input": ["StatefulPartitionedCall/model/conv2d_54/Conv2D", "StatefulPartitionedCall/model/tf.math.add_87/Add/y"], "attr": {"T": {"type": "DT_FLOAT"}}}, {"name": "StatefulPartitionedCall/model/tf.math.top_k/TopKV2", "op": "TopKV2", "input": ["StatefulPartitionedCall/model/tf.math.add_87/Add", "StatefulPartitionedCall/model/tf.math.top_k/TopKV2/k"], "attr": {"T": {"type": "DT_FLOAT"}, "sorted": {"b": true}}}, {"name": "Identity", "op": "Identity", "input": ["StatefulPartitionedCall/model/tf.math.top_k/TopKV2:1"], "attr": {"T": {"type": "DT_INT32"}}}], "library": {}, "versions": {"producer": 968}}, "weightsManifest": [{"paths": ["group1-shard1of5.bin", "group1-shard2of5.bin", "group1-shard3of5.bin", "group1-shard4of5.bin", "group1-shard5of5.bin"], "weights": [{"name": "StatefulPartitionedCall/model/conv2d_10/Conv2D/ReadVariableOp", "shape": [1, 1, 64, 256], "dtype": "float32"}, {"name": "StatefulPartitionedCall/model/tf.math.add_18/Add/y", "shape": [256], "dtype": "float32"}, {"name": "StatefulPartitionedCall/model/conv2d_45/Conv2D/ReadVariableOp", "shape": [1, 1, 64, 256], "dtype": "float32"}, {"name": "StatefulPartitionedCall/model/tf.math.add_73/Add/y", "shape": [256], "dtype": "float32"}, {"name": "StatefulPartitionedCall/model/tf.math.multiply/Mul/y", "shape": [1, 1, 1, 1], "dtype": "float32"}, {"name": "StatefulPartitionedCall/model/lambda/ResizeBilinear/size", "shape": [2], "dtype": "int32"}, {"name": "StatefulPartitionedCall/model/tf.slice_1/Slice/begin", "shape": [4], "dtype": "int32"}, {"name": "StatefulPartitionedCall/model/tf.slice_1/Slice/size", "shape": [4], "dtype": "int32"}, {"name": "StatefulPartitionedCall/model/conv2d_46/Conv2D/ReadVariableOp", "shape": [1, 1, 64, 256], "dtype": "float32"}, {"name": "StatefulPartitionedCall/model/tf.math.add_74/Add/y", "shape": [256], "dtype": "float32"}, {"name": "StatefulPartitionedCall/model/lambda_1/ResizeBilinear/size", "shape": [2], "dtype": "int32"}, {"name": "StatefulPartitionedCall/model/conv2d_47/Conv2D/ReadVariableOp", "shape": [1, 1, 128, 256], "dtype": "float32"}, {"name": "StatefulPartitionedCall/model/tf.math.add_76/Add/y", "shape": [256], "dtype": "float32"}, {"name": "StatefulPartitionedCall/model/conv2d_48/Conv2D/ReadVariableOp", "shape": [1, 1, 128, 256], "dtype": "float32"}, {"name": "StatefulPartitionedCall/model/tf.math.add_77/Add/y", "shape": [256], "dtype": "float32"}, {"name": "StatefulPartitionedCall/model/tf.math.multiply_2/Mul/y", "shape": [1, 1, 1, 1], "dtype": "float32"}, {"name": "StatefulPartitionedCall/model/lambda_2/ResizeBilinear/size", "shape": [2], "dtype": "int32"}, {"name": "StatefulPartitionedCall/model/tf.slice_2/Slice/begin", "shape": [4], "dtype": "int32"}, {"name": "StatefulPartitionedCall/model/tf.slice_2/Slice/size", "shape": [4], "dtype": "int32"}, {"name": "StatefulPartitionedCall/model/conv2d_49/Conv2D/ReadVariableOp", "shape": [1, 1, 128, 256], "dtype": "float32"}, {"name": "StatefulPartitionedCall/model/tf.math.add_78/Add/y", "shape": [256], "dtype": "float32"}, {"name": "StatefulPartitionedCall/model/lambda_3/ResizeBilinear/size", "shape": [2], "dtype": "int32"}, {"name": "StatefulPartitionedCall/model/lambda_4/ResizeBilinear/size", "shape": [2], "dtype": "int32"}, {"name": "StatefulPartitionedCall/model/conv2d_50/Conv2D/ReadVariableOp", "shape": [1, 1, 160, 256], "dtype": "float32"}, {"name": "StatefulPartitionedCall/model/tf.math.add_81/Add/y", "shape": [256], "dtype": "float32"}, {"name": "StatefulPartitionedCall/model/conv2d_51/Conv2D/ReadVariableOp", "shape": [1, 1, 160, 256], "dtype": "float32"}, {"name": "StatefulPartitionedCall/model/tf.math.add_82/Add/y", "shape": [256], "dtype": "float32"}, {"name": "StatefulPartitionedCall/model/tf.math.multiply_4/Mul/y", "shape": [1, 1, 1, 1], "dtype": "float32"}, {"name": "StatefulPartitionedCall/model/lambda_5/ResizeBilinear/size", "shape": [2], "dtype": "int32"}, {"name": "StatefulPartitionedCall/model/tf.math.add_71/Add/y", "shape": [384], "dtype": "float32"}, {"name": "StatefulPartitionedCall/model/tf.math.add_67/Add/y", "shape": [384], "dtype": "float32"}, {"name": "StatefulPartitionedCall/model/conv2d_39/Conv2D/ReadVariableOp", "shape": [1, 1, 384, 128], "dtype": "float32"}, {"name": "StatefulPartitionedCall/model/tf.math.add_64/Add/y", "shape": [128], "dtype": "float32"}, {"name": "StatefulPartitionedCall/model/tf.reshape_18/Reshape/shape", "shape": [4], "dtype": "int32"}, {"name": "StatefulPartitionedCall/model/tf.compat.v1.transpose_12/transpose/perm", "shape": [4], "dtype": "int32"}, {"name": "StatefulPartitionedCall/model/conv2d_40/Conv2D/ReadVariableOp", "shape": [1, 1, 384, 128], "dtype": "float32"}, {"name": "StatefulPartitionedCall/model/tf.math.add_65/Add/y", "shape": [128], "dtype": "float32"}, {"name": "StatefulPartitionedCall/model/tf.reshape_19/Reshape/shape", "shape": [4], "dtype": "int32"}, {"name": "StatefulPartitionedCall/model/tf.compat.v1.transpose_13/transpose/perm", "shape": [4], "dtype": "int32"}, {"name": "unknown_59", "shape": [2], "dtype": "int32"}, {"name": "unknown_60", "shape": [4], "dtype": "int32"}, {"name": "StatefulPartitionedCall/model/tf.math.add_62/Add/y", "shape": [384], "dtype": "float32"}, {"name": "StatefulPartitionedCall/model/tf.math.add_58/Add/y", "shape": [384], "dtype": "float32"}, {"name": "StatefulPartitionedCall/model/conv2d_33/Conv2D/ReadVariableOp", "shape": [1, 1, 384, 128], "dtype": "float32"}, {"name": "StatefulPartitionedCall/model/tf.math.add_55/Add/y", "shape": [128], "dtype": "float32"}, {"name": "StatefulPartitionedCall/model/tf.reshape_12/Reshape/shape", "shape": [4], "dtype": "int32"}, {"name": "StatefulPartitionedCall/model/tf.compat.v1.transpose_8/transpose/perm", "shape": [4], "dtype": "int32"}, {"name": "StatefulPartitionedCall/model/conv2d_34/Conv2D/ReadVariableOp", "shape": [1, 1, 384, 128], "dtype": "float32"}, {"name": "StatefulPartitionedCall/model/tf.math.add_56/Add/y", "shape": [128], "dtype": "float32"}, {"name": "StatefulPartitionedCall/model/tf.reshape_13/Reshape/shape", "shape": [4], "dtype": "int32"}, {"name": "StatefulPartitionedCall/model/tf.compat.v1.transpose_9/transpose/perm", "shape": [4], "dtype": "int32"}, {"name": "unknown_50", "shape": [2], "dtype": "int32"}, {"name": "unknown_51", "shape": [4], "dtype": "int32"}, {"name": "StatefulPartitionedCall/model/tf.math.add_53/Add/y", "shape": [384], "dtype": "float32"}, {"name": "StatefulPartitionedCall/model/tf.math.add_49/Add/y", "shape": [384], "dtype": "float32"}, {"name": "StatefulPartitionedCall/model/conv2d_27/Conv2D/ReadVariableOp", "shape": [1, 1, 384, 128], "dtype": "float32"}, {"name": "StatefulPartitionedCall/model/tf.math.add_46/Add/y", "shape": [128], "dtype": "float32"}, {"name": "StatefulPartitionedCall/model/tf.reshape_6/Reshape/shape", "shape": [4], "dtype": "int32"}, {"name": "StatefulPartitionedCall/model/tf.compat.v1.transpose_4/transpose/perm", "shape": [4], "dtype": "int32"}, {"name": "StatefulPartitionedCall/model/conv2d_28/Conv2D/ReadVariableOp", "shape": [1, 1, 384, 128], "dtype": "float32"}, {"name": "StatefulPartitionedCall/model/tf.math.add_47/Add/y", "shape": [128], "dtype": "float32"}, {"name": "StatefulPartitionedCall/model/tf.reshape_7/Reshape/shape", "shape": [4], "dtype": "int32"}, {"name": "StatefulPartitionedCall/model/tf.compat.v1.transpose_5/transpose/perm", "shape": [4], "dtype": "int32"}, {"name": "unknown_41", "shape": [2], "dtype": "int32"}, {"name": "unknown_42", "shape": [4], "dtype": "int32"}, {"name": "StatefulPartitionedCall/model/tf.math.add_44/Add/y", "shape": [384], "dtype": "float32"}, {"name": "StatefulPartitionedCall/model/conv2d_21/Conv2D/ReadVariableOp", "shape": [1, 1, 384, 128], "dtype": "float32"}, {"name": "StatefulPartitionedCall/model/tf.math.add_37/Add/y", "shape": [128], "dtype": "float32"}, {"name": "StatefulPartitionedCall/model/tf.reshape/Reshape/shape", "shape": [4], "dtype": "int32"}, {"name": "StatefulPartitionedCall/model/tf.compat.v1.transpose/transpose/perm", "shape": [4], "dtype": "int32"}, {"name": "StatefulPartitionedCall/model/conv2d_22/Conv2D/ReadVariableOp", "shape": [1, 1, 384, 128], "dtype": "float32"}, {"name": "StatefulPartitionedCall/model/tf.math.add_38/Add/y", "shape": [128], "dtype": "float32"}, {"name": "StatefulPartitionedCall/model/tf.reshape_1/Reshape/shape", "shape": [4], "dtype": "int32"}, {"name": "StatefulPartitionedCall/model/tf.compat.v1.transpose_1/transpose/perm", "shape": [4], "dtype": "int32"}, {"name": "unknown_32", "shape": [2], "dtype": "int32"}, {"name": "unknown_33", "shape": [4], "dtype": "int32"}, {"name": "StatefulPartitionedCall/model/zero_padding2d/Pad/paddings", "shape": [4, 2], "dtype": "int32"}, {"name": "StatefulPartitionedCall/model/conv2d/Conv2D/ReadVariableOp", "shape": [3, 3, 3, 16], "dtype": "float32"}, {"name": "StatefulPartitionedCall/model/tf.math.add/Add/y", "shape": [16], "dtype": "float32"}, {"name": "StatefulPartitionedCall/model/zero_padding2d_1/Pad/paddings", "shape": [4, 2], "dtype": "int32"}, {"name": "StatefulPartitionedCall/model/depthwise_conv2d/depthwise/ReadVariableOp", "shape": [3, 3, 16, 1], "dtype": "float32"}, {"name": "StatefulPartitionedCall/model/tf.math.add_1/Add/y", "shape": [16], "dtype": "float32"}, {"name": "StatefulPartitionedCall/model/conv2d_1/Conv2D/ReadVariableOp", "shape": [1, 1, 16, 16], "dtype": "float32"}, {"name": "StatefulPartitionedCall/model/tf.math.add_2/Add/y", "shape": [16], "dtype": "float32"}, {"name": "StatefulPartitionedCall/model/conv2d_2/Conv2D/ReadVariableOp", "shape": [1, 1, 16, 64], "dtype": "float32"}, {"name": "StatefulPartitionedCall/model/tf.math.add_4/Add/y", "shape": [64], "dtype": "float32"}, {"name": "StatefulPartitionedCall/model/zero_padding2d_2/Pad/paddings", "shape": [4, 2], "dtype": "int32"}, {"name": "StatefulPartitionedCall/model/depthwise_conv2d_1/depthwise/ReadVariableOp", "shape": [3, 3, 64, 1], "dtype": "float32"}, {"name": "StatefulPartitionedCall/model/tf.math.add_5/Add/y", "shape": [64], "dtype": "float32"}, {"name": "StatefulPartitionedCall/model/conv2d_3/Conv2D/ReadVariableOp", "shape": [1, 1, 64, 32], "dtype": "float32"}, {"name": "StatefulPartitionedCall/model/tf.math.add_6/Add/y", "shape": [32], "dtype": "float32"}, {"name": "StatefulPartitionedCall/model/conv2d_4/Conv2D/ReadVariableOp", "shape": [1, 1, 32, 96], "dtype": "float32"}, {"name": "StatefulPartitionedCall/model/tf.math.add_7/Add/y", "shape": [96], "dtype": "float32"}, {"name": "StatefulPartitionedCall/model/zero_padding2d_3/Pad/paddings", "shape": [4, 2], "dtype": "int32"}, {"name": "StatefulPartitionedCall/model/depthwise_conv2d_2/depthwise/ReadVariableOp", "shape": [3, 3, 96, 1], "dtype": "float32"}, {"name": "StatefulPartitionedCall/model/tf.math.add_8/Add/y", "shape": [96], "dtype": "float32"}, {"name": "StatefulPartitionedCall/model/conv2d_5/Conv2D/ReadVariableOp", "shape": [1, 1, 96, 32], "dtype": "float32"}, {"name": "StatefulPartitionedCall/model/tf.math.add_9/Add/y", "shape": [32], "dtype": "float32"}, {"name": "StatefulPartitionedCall/model/conv2d_6/Conv2D/ReadVariableOp", "shape": [1, 1, 32, 96], "dtype": "float32"}, {"name": "StatefulPartitionedCall/model/tf.math.add_11/Add/y", "shape": [96], "dtype": "float32"}, {"name": "StatefulPartitionedCall/model/zero_padding2d_4/Pad/paddings", "shape": [4, 2], "dtype": "int32"}, {"name": "StatefulPartitionedCall/model/depthwise_conv2d_3/depthwise/ReadVariableOp", "shape": [5, 5, 96, 1], "dtype": "float32"}, {"name": "StatefulPartitionedCall/model/tf.math.add_12/Add/y", "shape": [96], "dtype": "float32"}, {"name": "StatefulPartitionedCall/model/conv2d_7/Conv2D/ReadVariableOp", "shape": [1, 1, 96, 64], "dtype": "float32"}, {"name": "StatefulPartitionedCall/model/tf.math.add_13/Add/y", "shape": [64], "dtype": "float32"}, {"name": "StatefulPartitionedCall/model/conv2d_8/Conv2D/ReadVariableOp", "shape": [1, 1, 64, 192], "dtype": "float32"}, {"name": "StatefulPartitionedCall/model/tf.math.add_14/Add/y", "shape": [192], "dtype": "float32"}, {"name": "StatefulPartitionedCall/model/zero_padding2d_5/Pad/paddings", "shape": [4, 2], "dtype": "int32"}, {"name": "StatefulPartitionedCall/model/depthwise_conv2d_4/depthwise/ReadVariableOp", "shape": [5, 5, 192, 1], "dtype": "float32"}, {"name": "StatefulPartitionedCall/model/tf.math.add_15/Add/y", "shape": [192], "dtype": "float32"}, {"name": "StatefulPartitionedCall/model/conv2d_9/Conv2D/ReadVariableOp", "shape": [1, 1, 192, 64], "dtype": "float32"}, {"name": "StatefulPartitionedCall/model/tf.math.add_16/Add/y", "shape": [64], "dtype": "float32"}, {"name": "StatefulPartitionedCall/model/conv2d_11/Conv2D/ReadVariableOp", "shape": [1, 1, 64, 192], "dtype": "float32"}, {"name": "StatefulPartitionedCall/model/tf.math.add_19/Add/y", "shape": [192], "dtype": "float32"}, {"name": "StatefulPartitionedCall/model/zero_padding2d_6/Pad/paddings", "shape": [4, 2], "dtype": "int32"}, {"name": "StatefulPartitionedCall/model/depthwise_conv2d_5/depthwise/ReadVariableOp", "shape": [3, 3, 192, 1], "dtype": "float32"}, {"name": "StatefulPartitionedCall/model/tf.math.add_20/Add/y", "shape": [192], "dtype": "float32"}, {"name": "StatefulPartitionedCall/model/conv2d_12/Conv2D/ReadVariableOp", "shape": [1, 1, 192, 128], "dtype": "float32"}, {"name": "StatefulPartitionedCall/model/tf.math.add_21/Add/y", "shape": [128], "dtype": "float32"}, {"name": "StatefulPartitionedCall/model/conv2d_13/Conv2D/ReadVariableOp", "shape": [1, 1, 128, 384], "dtype": "float32"}, {"name": "StatefulPartitionedCall/model/tf.math.add_22/Add/y", "shape": [384], "dtype": "float32"}, {"name": "StatefulPartitionedCall/model/zero_padding2d_7/Pad/paddings", "shape": [4, 2], "dtype": "int32"}, {"name": "StatefulPartitionedCall/model/depthwise_conv2d_6/depthwise/ReadVariableOp", "shape": [3, 3, 384, 1], "dtype": "float32"}, {"name": "StatefulPartitionedCall/model/tf.math.add_23/Add/y", "shape": [384], "dtype": "float32"}, {"name": "StatefulPartitionedCall/model/conv2d_14/Conv2D/ReadVariableOp", "shape": [1, 1, 384, 128], "dtype": "float32"}, {"name": "StatefulPartitionedCall/model/tf.math.add_24/Add/y", "shape": [128], "dtype": "float32"}, {"name": "StatefulPartitionedCall/model/conv2d_15/Conv2D/ReadVariableOp", "shape": [1, 1, 128, 768], "dtype": "float32"}, {"name": "StatefulPartitionedCall/model/tf.math.add_26/Add/y", "shape": [768], "dtype": "float32"}, {"name": "StatefulPartitionedCall/model/zero_padding2d_8/Pad/paddings", "shape": [4, 2], "dtype": "int32"}, {"name": "StatefulPartitionedCall/model/depthwise_conv2d_7/depthwise/ReadVariableOp", "shape": [5, 5, 768, 1], "dtype": "float32"}, {"name": "StatefulPartitionedCall/model/tf.math.add_27/Add/y", "shape": [768], "dtype": "float32"}, {"name": "StatefulPartitionedCall/model/conv2d_16/Conv2D/ReadVariableOp", "shape": [1, 1, 768, 160], "dtype": "float32"}, {"name": "StatefulPartitionedCall/model/tf.math.add_28/Add/y", "shape": [160], "dtype": "float32"}, {"name": "StatefulPartitionedCall/model/conv2d_17/Conv2D/ReadVariableOp", "shape": [1, 1, 160, 960], "dtype": "float32"}, {"name": "StatefulPartitionedCall/model/tf.math.add_29/Add/y", "shape": [960], "dtype": "float32"}, {"name": "StatefulPartitionedCall/model/zero_padding2d_9/Pad/paddings", "shape": [4, 2], "dtype": "int32"}, {"name": "StatefulPartitionedCall/model/depthwise_conv2d_8/depthwise/ReadVariableOp", "shape": [5, 5, 960, 1], "dtype": "float32"}, {"name": "StatefulPartitionedCall/model/tf.math.add_30/Add/y", "shape": [960], "dtype": "float32"}, {"name": "StatefulPartitionedCall/model/conv2d_18/Conv2D/ReadVariableOp", "shape": [1, 1, 960, 160], "dtype": "float32"}, {"name": "StatefulPartitionedCall/model/tf.math.add_31/Add/y", "shape": [160], "dtype": "float32"}, {"name": "StatefulPartitionedCall/model/conv2d_19/Conv2D/ReadVariableOp", "shape": [1, 1, 160, 960], "dtype": "float32"}, {"name": "StatefulPartitionedCall/model/tf.math.add_33/Add/y", "shape": [960], "dtype": "float32"}, {"name": "StatefulPartitionedCall/model/zero_padding2d_10/Pad/paddings", "shape": [4, 2], "dtype": "int32"}, {"name": "StatefulPartitionedCall/model/depthwise_conv2d_9/depthwise/ReadVariableOp", "shape": [3, 3, 960, 1], "dtype": "float32"}, {"name": "StatefulPartitionedCall/model/tf.math.add_34/Add/y", "shape": [960], "dtype": "float32"}, {"name": "StatefulPartitionedCall/model/conv2d_20/Conv2D/ReadVariableOp", "shape": [1, 1, 960, 160], "dtype": "float32"}, {"name": "StatefulPartitionedCall/model/tf.math.add_35/Add/y", "shape": [160], "dtype": "float32"}, {"name": "StatefulPartitionedCall/model/tf.concat/concat/axis", "shape": [], "dtype": "int32"}, {"name": "StatefulPartitionedCall/model/conv2d_23/Conv2D/ReadVariableOp", "shape": [1, 1, 384, 256], "dtype": "float32"}, {"name": "StatefulPartitionedCall/model/tf.math.add_39/Add/y", "shape": [256], "dtype": "float32"}, {"name": "StatefulPartitionedCall/model/tf.reshape_4/Reshape/shape", "shape": [4], "dtype": "int32"}, {"name": "StatefulPartitionedCall/model/tf.compat.v1.transpose_2/transpose/perm", "shape": [4], "dtype": "int32"}, {"name": "StatefulPartitionedCall/model/tf.compat.v1.transpose_3/transpose/perm", "shape": [4], "dtype": "int32"}, {"name": "StatefulPartitionedCall/model/tf.reshape_5/Reshape/shape", "shape": [4], "dtype": "int32"}, {"name": "StatefulPartitionedCall/model/conv2d_24/Conv2D/ReadVariableOp", "shape": [1, 1, 256, 384], "dtype": "float32"}, {"name": "StatefulPartitionedCall/model/tf.math.add_40/Add/y", "shape": [384], "dtype": "float32"}, {"name": "StatefulPartitionedCall/model/conv2d_25/Conv2D/ReadVariableOp", "shape": [1, 1, 384, 768], "dtype": "float32"}, {"name": "StatefulPartitionedCall/model/tf.math.add_42/Add/y", "shape": [768], "dtype": "float32"}, {"name": "StatefulPartitionedCall/model/zero_padding2d_11/Pad/paddings", "shape": [4, 2], "dtype": "int32"}, {"name": "StatefulPartitionedCall/model/depthwise_conv2d_10/depthwise/ReadVariableOp", "shape": [3, 3, 768, 1], "dtype": "float32"}, {"name": "StatefulPartitionedCall/model/tf.math.add_43/Add/y", "shape": [768], "dtype": "float32"}, {"name": "StatefulPartitionedCall/model/conv2d_26/Conv2D/ReadVariableOp", "shape": [1, 1, 768, 384], "dtype": "float32"}, {"name": "StatefulPartitionedCall/model/conv2d_29/Conv2D/ReadVariableOp", "shape": [1, 1, 384, 256], "dtype": "float32"}, {"name": "StatefulPartitionedCall/model/tf.math.add_48/Add/y", "shape": [256], "dtype": "float32"}, {"name": "StatefulPartitionedCall/model/tf.reshape_10/Reshape/shape", "shape": [4], "dtype": "int32"}, {"name": "StatefulPartitionedCall/model/tf.compat.v1.transpose_6/transpose/perm", "shape": [4], "dtype": "int32"}, {"name": "StatefulPartitionedCall/model/tf.compat.v1.transpose_7/transpose/perm", "shape": [4], "dtype": "int32"}, {"name": "StatefulPartitionedCall/model/tf.reshape_11/Reshape/shape", "shape": [4], "dtype": "int32"}, {"name": "StatefulPartitionedCall/model/conv2d_30/Conv2D/ReadVariableOp", "shape": [1, 1, 256, 384], "dtype": "float32"}, {"name": "StatefulPartitionedCall/model/conv2d_31/Conv2D/ReadVariableOp", "shape": [1, 1, 384, 768], "dtype": "float32"}, {"name": "StatefulPartitionedCall/model/tf.math.add_51/Add/y", "shape": [768], "dtype": "float32"}, {"name": "StatefulPartitionedCall/model/zero_padding2d_12/Pad/paddings", "shape": [4, 2], "dtype": "int32"}, {"name": "StatefulPartitionedCall/model/depthwise_conv2d_11/depthwise/ReadVariableOp", "shape": [3, 3, 768, 1], "dtype": "float32"}, {"name": "StatefulPartitionedCall/model/tf.math.add_52/Add/y", "shape": [768], "dtype": "float32"}, {"name": "StatefulPartitionedCall/model/conv2d_32/Conv2D/ReadVariableOp", "shape": [1, 1, 768, 384], "dtype": "float32"}, {"name": "StatefulPartitionedCall/model/conv2d_35/Conv2D/ReadVariableOp", "shape": [1, 1, 384, 256], "dtype": "float32"}, {"name": "StatefulPartitionedCall/model/tf.math.add_57/Add/y", "shape": [256], "dtype": "float32"}, {"name": "StatefulPartitionedCall/model/tf.reshape_16/Reshape/shape", "shape": [4], "dtype": "int32"}, {"name": "StatefulPartitionedCall/model/tf.compat.v1.transpose_10/transpose/perm", "shape": [4], "dtype": "int32"}, {"name": "StatefulPartitionedCall/model/tf.compat.v1.transpose_11/transpose/perm", "shape": [4], "dtype": "int32"}, {"name": "StatefulPartitionedCall/model/tf.reshape_17/Reshape/shape", "shape": [4], "dtype": "int32"}, {"name": "StatefulPartitionedCall/model/conv2d_36/Conv2D/ReadVariableOp", "shape": [1, 1, 256, 384], "dtype": "float32"}, {"name": "StatefulPartitionedCall/model/conv2d_37/Conv2D/ReadVariableOp", "shape": [1, 1, 384, 768], "dtype": "float32"}, {"name": "StatefulPartitionedCall/model/tf.math.add_60/Add/y", "shape": [768], "dtype": "float32"}, {"name": "StatefulPartitionedCall/model/zero_padding2d_13/Pad/paddings", "shape": [4, 2], "dtype": "int32"}, {"name": "StatefulPartitionedCall/model/depthwise_conv2d_12/depthwise/ReadVariableOp", "shape": [3, 3, 768, 1], "dtype": "float32"}, {"name": "StatefulPartitionedCall/model/tf.math.add_61/Add/y", "shape": [768], "dtype": "float32"}, {"name": "StatefulPartitionedCall/model/conv2d_38/Conv2D/ReadVariableOp", "shape": [1, 1, 768, 384], "dtype": "float32"}, {"name": "StatefulPartitionedCall/model/conv2d_41/Conv2D/ReadVariableOp", "shape": [1, 1, 384, 256], "dtype": "float32"}, {"name": "StatefulPartitionedCall/model/tf.math.add_66/Add/y", "shape": [256], "dtype": "float32"}, {"name": "StatefulPartitionedCall/model/tf.reshape_22/Reshape/shape", "shape": [4], "dtype": "int32"}, {"name": "StatefulPartitionedCall/model/tf.compat.v1.transpose_14/transpose/perm", "shape": [4], "dtype": "int32"}, {"name": "StatefulPartitionedCall/model/tf.compat.v1.transpose_15/transpose/perm", "shape": [4], "dtype": "int32"}, {"name": "StatefulPartitionedCall/model/tf.reshape_23/Reshape/shape", "shape": [4], "dtype": "int32"}, {"name": "StatefulPartitionedCall/model/conv2d_42/Conv2D/ReadVariableOp", "shape": [1, 1, 256, 384], "dtype": "float32"}, {"name": "StatefulPartitionedCall/model/conv2d_43/Conv2D/ReadVariableOp", "shape": [1, 1, 384, 768], "dtype": "float32"}, {"name": "StatefulPartitionedCall/model/tf.math.add_69/Add/y", "shape": [768], "dtype": "float32"}, {"name": "StatefulPartitionedCall/model/zero_padding2d_14/Pad/paddings", "shape": [4, 2], "dtype": "int32"}, {"name": "StatefulPartitionedCall/model/depthwise_conv2d_13/depthwise/ReadVariableOp", "shape": [3, 3, 768, 1], "dtype": "float32"}, {"name": "StatefulPartitionedCall/model/tf.math.add_70/Add/y", "shape": [768], "dtype": "float32"}, {"name": "StatefulPartitionedCall/model/conv2d_44/Conv2D/ReadVariableOp", "shape": [1, 1, 768, 384], "dtype": "float32"}, {"name": "StatefulPartitionedCall/model/tf.slice_3/Slice/begin", "shape": [4], "dtype": "int32"}, {"name": "StatefulPartitionedCall/model/tf.slice_3/Slice/size", "shape": [4], "dtype": "int32"}, {"name": "StatefulPartitionedCall/model/conv2d_52/Conv2D/ReadVariableOp", "shape": [1, 1, 160, 256], "dtype": "float32"}, {"name": "StatefulPartitionedCall/model/tf.math.add_83/Add/y", "shape": [256], "dtype": "float32"}, {"name": "StatefulPartitionedCall/model/lambda_6/ResizeBilinear/size", "shape": [2], "dtype": "int32"}, {"name": "StatefulPartitionedCall/model/lambda_7/ResizeBilinear/size", "shape": [2], "dtype": "int32"}, {"name": "StatefulPartitionedCall/model/conv2d_53/Conv2D/ReadVariableOp", "shape": [1, 1, 256, 256], "dtype": "float32"}, {"name": "StatefulPartitionedCall/model/tf.math.add_86/Add/y", "shape": [256], "dtype": "float32"}, {"name": "StatefulPartitionedCall/model/conv2d_54/Conv2D/ReadVariableOp", "shape": [1, 1, 256, 150], "dtype": "float32"}, {"name": "StatefulPartitionedCall/model/tf.math.add_87/Add/y", "shape": [150], "dtype": "float32"}, {"name": "StatefulPartitionedCall/model/tf.math.top_k/TopKV2/k", "shape": [], "dtype": "int32"}]}]}